projects/proj4/models/latent_model.pt (torch_old, 297388 bytes, 21 tensors)

encoder.lstm.weight_ih_l0 f4 [200, 50]
-0.12496271 -0.15207538 0.17853974 -0.0052565965 -0.16995583 -0.10643089 0.08653447 -0.13888122
-0.17012915 0.0809292 -0.12827039 -0.023000311 0.048488896 0.1161465 0.018125074 0.09368936
0.21769162 -0.2063431 0.065675944 -0.14614885 -0.045799382 -0.14428473 0.15688027 0.0014680224
0.16230533 -0.03233158 -0.018108694 -0.00701085 -0.020396339 0.024053056 -0.0028793588 0.14603004
-0.036065023 -0.011265745 0.0818427 -0.13083872 -0.1339409 0.0059783575 -0.011213259 0.09129172
0.010889163 -0.16736978 -0.020884283 -0.019698938 -0.00029199044 -0.14114562 -0.03520659 0.05979616
0.16462517 0.060271673 0.1226479 -0.039608907 0.036979947 0.17077298 0.14704756 -0.13169585
-0.06922579 -0.12289177 0.21859464 0.062332474 0.0057161646 -0.07057369 -0.17035817 0.1361362
0.055497844 0.16289125 0.1493723 -0.014439236 0.15368488 0.17742594 0.06327973 -0.18532775
0.020005409 -0.071603745 -0.054322075 -0.015754927 0.00360719 -0.16329256 0.012798953 0.089916036
-0.17502525 -0.078136116 -0.11413539 -0.03756461 0.017096769 0.020667344 -0.09282191 -0.053922664
-0.12311141 0.048053745 0.15257901 -0.05342952 -0.07120554 0.163786 0.018437272 -0.06163813
0.10827029 0.005328114 0.07505392 0.084369 0.11262911 -0.08204113 0.05529905 0.1952264
0.030522056 0.03206128 -0.10866654 -0.17058131 -0.08310413 0.096821904 -0.19990808 -0.06980882
0.24934727 0.0657906 -0.14724533 -0.15458436 0.2134995 -0.24945387 0.148324 0.11151711
0.061313927 -0.2859472 0.1643476 0.18304583 -0.023934413 0.015444092 -0.2310528 0.11203176
0.07729866 0.21613427 0.0035917745 0.07177165 0.08108822 -0.06741512 0.06673901 0.12679319
-0.05274586 0.09326482 -0.012846671 -0.05950994 0.37353426 -0.07127368 -0.1925196 -0.13915616
-0.010588582 0.027340561 0.03641523 -0.020280605 0.15339445 0.009573042 -0.05716764 -0.14951794
0.054267444 0.14633726 -0.09782459 0.02242551 0.09411433 0.09497683 -0.03817696 0.06471584
-0.024878219 0.029978797 0.032086156 0.24908054 -0.075756565 0.123563185 0.15406479 -0.08038614
-0.011350148 0.061465383 -0.001564413 -0.028126962 -0.07673633 -0.036634695 0.25077492 -0.05663801
-0.11446473 -0.109723926 0.06758198 0.09412536 -0.30038676 0.112680174 -0.18797342 0.092014275
-0.20281857 0.05249865 -0.18445654 0.1869811 -0.20342822 -0.14624746 0.36078596 -0.083987355
0.1443658 0.05946813 0.0027441669 0.12853147 0.14830819 0.30988243 -0.041933246 0.22100373
0.03773413 -0.021361986 0.15507926 0.06248382 -0.20163585 -0.07944742 -0.0678381 0.02256951
-0.022492696 -0.10547597 -0.06864168 0.056903243 0.13609059 0.17068866 0.05087824 -0.0002411276
0.055495024 -0.12504426 0.073448695 0.06252174 0.1632088 -0.12091911 0.0706636 0.041295964
-0.056391396 -0.055000134 -0.13089085 0.06113377 0.11501172 0.1077476 -0.005012053 0.11173048
-0.047214076 0.09821237 -0.03215609 0.052018974 0.029721707 -0.033273492 -0.08980264 -0.025748875
-0.022573804 -0.01847844 -0.00584554 -0.0770038 0.127535 -0.008412297 -0.034646038 0.037997134
-0.010822598 0.18764782 0.18950112 -0.011367838 0.22456433 0.09437421 0.017950077 -0.19648302
00000000: 73ec ffbd a6b9 1bbe 1fd3 363e 873f acbb
00000010: e708 2ebe 70f8 d9bd fc38 b13d e136 0ebe
00000020: 5636 2ebe 35be a53d 5059 03be 266b bcbc
00000030: 4b9c 463d 37de ed3d 097b 943c 35e0 bf3d
00000040: 8dea 5e3e 9b4b 53be 1c81 863d 0ba8 15be
00000050: 2298 3bbd 60bf 13be 39a5 203e a86a c03a
00000060: 5e33 263e 1e6e 04bd af58 94bc 46bb e5bb
00000070: 3916 a7bc ea0a c53c a0b3 3cbb e688 153e
00000080: ebb8 13bd f693 38bc 259d a73d 96fa 05be
00000090: ce27 09be 19e6 c33b d1b7 37bc 27f7 ba3d
000000a0: 7668 323c fc62 2bbe 8415 abbc ab5f a1bc
000000b0: 4b16 99b9 7a88 10be c934 10bd d1ec 743d
000000c0: 8093 283e 6edf 763d d22e fb3d f33c 22bd
000000d0: 4978 173d 1ddf 2e3e a393 163e 47db 06be
000000e0: 40c6 8dbd aeae fbbd 46d7 5f3e 5650 7f3d
000000f0: aa4e bb3b f088 90bd 5f72 2ebe 4a67 0b3e
00000100: b551 633d f7cc 263e 0df5 183e 8c92 6cbc
00000110: 925f 1d3e 25af 353e ce98 813d 8fc6 3dbe
00000120: 62e2 a33c fca4 92bd d380 5ebd 7a10 81bc
00000130: 9b66 6c3b 2a36 27be b3b2 513c e625 b83d
00000140: d239 33be d405 a0bd d1bf e9bd 59dd 19bd
00000150: 860e 8c3c 904e a93c 6a19 bebd 03de 5cbd
00000160: d621 fcbd 01d4 443d ac3d 1c3e ead8 5abd
00000170: 36d4 91bd 84b7 273e c309 973c 4478 7cbd
00000180: d0bc dd3d 7697 ae3b dfb5 993d a7c9 ac3d
00000190: 17aa e63d 2e05 a8bd 4281 623d 6ee9 473e
000001a0: 6409 fa3c b052 033d 908c debd deac 2ebe
000001b0: 8032 aabd 904a c63d b4b4 4cbe edf7 8ebd
000001c0: e454 7f3e 39bd 863d 7bc7 16be 5d4b 1ebe
000001d0: 9d9f 5a3e d670 7fbe 3fe2 173e 1563 e43d
000001e0: 5024 7b3d ac67 92be bd4a 283e 5e70 3b3e
000001f0: 1a12 c4bc 3809 7d3c 1b99 6cbe e870 e53d
00000200: c34e 9e3d 4d52 5d3e fa63 6b3b 04fd 923d
00000210: 9511 a63d f010 8abd 76ae 883d 13d6 013e
00000220: 0b0c 58bd a001 bf3d d87a 52bc b2c0 73bd
00000230: e23f bf3e eff7 91bd dc23 45be f47e 0ebe
00000240: bb7b 2dbc 50f9 df3c 2328 153d 8323 a6bc
00000250: 6f13 1d3e 40d8 1c3c 9e28 6abd 3b1b 19be
00000260: 8a47 5e3d 6fd9 153e 4258 c8bd b4b5 b73c
00000270: 04bf c03d 3683 c23d 725f 1cbd bd89 843d
00000280: 68cd cbbc 1896 f53c c66c 033d f80e 7f3e
00000290: 4226 9bbd b20e fd3d 29c3 1d3e 7da1 a4bd
000002a0: f9f5 39bc 20c3 7b3d fd0c cdba 846a e6bc
000002b0: f027 9dbd 430e 16bd 9265 803e 42fd 67bd
000002c0: 7c6c eabd f0b6 e0bd 6c68 8a3d ccc4 c03d
000002d0: 4bcc 99be ddc4 e63d 1b7c 40be fb71 bc3d
000002e0: acaf 4fbe d308 573d 2de2 3cbe f977 3f3e
000002f0: 7d4f 50be e5c1 15be f0b8 b83e 9001 acbd
00000300: a1d4 133e db94 733d 7bd7 333b c19d 033e
00000310: 1ade 173e e9a8 9e3e 32c2 2bbd cd4e 623e
00000320: 1a8f 1a3d 55ff aebc 19cd 1e3e 09ef 7f3d
00000330: a179 4ebe 54b5 a2bd b4ee 8abd b1e3 b83c
00000340: 9a42 b8bc c903 d8bd 0294 8cbd 6013 693d
00000350: 555b 0b3e 02c9 2e3e b465 503d 32d7 7cb9
00000360: c04e 633d 9a0b 00be 456c 963d 660b 803d
00000370: 3520 273e 70a4 f7bd 14b8 903d f525 293d
00000380: aafa 66bd d247 61bd 4008 06be 6767 7a3d
00000390: 448b eb3d c6aa dc3d 263c a4bb f3d2 e43d
000003a0: 8c63 41bd 9123 c93d 1bb6 03bd d911 553d
000003b0: f07a f33c c949 08bd 72ea b7bd 4eef d2bc
000003c0: b3ec b8bc 1960 97bc f28b bfbb 2bb4 9dbd
000003d0: 8998 023e bbd3 09bc 01e9 0dbd e2a2 1b3d
000003e0: 4451 31bc c026 403e 950c 423e 2b40 3abc
000003f0: 31f4 653e 4447 c13d 0a0c 933c d832 49be

encoder.lstm.weight_hh_l0 f4 [200, 50]
-0.038755447 0.08429515 0.040544666 -0.1439553 0.0120188 -0.041399926 -0.21011956 0.11027133
0.16889109 0.09534159 -0.07760006 0.081596665 -0.010796629 0.037047006 0.024266234 -0.07429813
0.078846194 0.04487952 -0.03838999 -0.042463142 0.14147931 0.035549123 0.12162342 -0.072379105
-0.103556246 0.06335284 -0.05265307 -0.07445328 0.08078351 0.021641808 0.16361207 0.08008269
-0.023209935 0.081072465 -0.12752578 -0.10341427 -0.112427525 -0.09052525 0.0555305 0.023743374
-0.04929684 0.15088232 -0.084225014 0.016589265 0.03767909 0.076189294 0.042951863 0.035546575
0.08995297 0.011111846 -0.006244621 0.01879413 -0.010121468 0.023534441 -0.015022224 0.061232436
0.10799652 -0.11578656 -0.049868822 -0.06749878 0.010591161 0.08204488 0.032634877 -0.06337748
-0.19446003 -0.1807177 -0.09583529 0.14363982 -0.20415345 0.06247989 0.07542504 0.01805033
-0.11553225 0.009853796 -0.14488854 0.16003634 0.06687208 -0.15846488 0.03535788 -0.014691635
-0.064571775 0.18255971 -0.09478234 0.0889353 -0.19255859 0.022197505 0.15232523 0.10627613
0.11849127 0.056724455 0.058687285 -0.07559681 0.066874735 -0.01631503 -0.12297669 -0.15414798
-0.155525 -0.02068577 0.10970802 0.029135393 -0.20371628 0.09901638 0.07492329 0.14821424
0.05528767 0.10117828 0.120392896 -0.049800694 -0.19788246 0.045829456 -0.0061612013 -0.14050627
0.059574377 0.14529996 -0.08141532 -0.20223741 -0.051218484 -0.04366902 -0.06912933 -0.009999953
-0.20437282 0.21724172 -0.16151014 -0.24526374 -0.2233495 0.019041257 0.20748644 -0.19999248
0.10677362 0.050421096 0.17257509 0.21359593 -0.10334517 -0.015896538 -0.15852316 -0.077590875
0.20299226 0.18077303 0.073309 0.21936476 -0.1684634 -0.2211377 0.20774966 -0.18161874
-0.03869165 -0.10462765 -0.22083835 0.07242637 0.11799728 -0.009138193 0.014273054 -0.145774
0.11785724 0.133982 0.033765044 0.05600038 0.1554317 -0.17974687 -0.0059750453 0.17838047
0.071531765 -0.13855447 0.04279711 0.06682077 -0.17832436 -0.18306498 0.014571685 -0.04800103
-0.12654786 0.11462711 -0.17150207 -0.040482827 0.080898546 0.046168763 -0.14509627 0.17175874
0.12645914 0.08770756 0.1890187 -0.06998888 -0.07026379 0.055266585 0.034088023 -0.06518081
-0.10654904 -0.058250457 0.18072988 0.0024758484 0.18216197 0.009174603 0.0735215 0.059316833
0.16899975 -0.01583434 0.0398236 -0.06133303 0.028419873 -0.13808231 0.13165617 0.09801027
0.07941187 -0.12362769 -0.06607437 -0.061959583 -0.1318338 -0.017912107 0.06249435 -0.054240752
-0.053845514 0.035023604 -0.12528698 -0.13195421 0.031183092 0.1293291 0.08713206 0.0208045
-0.06494739 0.10954695 -0.062550955 0.06710704 0.0121444175 -0.0052729165 -0.03211536 0.09071922
0.04260889 -0.07016926 -0.030900305 0.084628925 0.0013702621 0.08414393 -0.2086698 -0.0092600705
-0.123923756 0.04644864 0.016373374 0.0963338 0.086638436 0.10713544 0.10580704 -0.012651279
0.11323133 -0.056926638 0.16598716 -0.054548133 0.012472566 -0.0052491077 0.045411043 0.13682966
-0.14468792 0.027020577 -0.083512925 0.0864957 0.11654313 -0.07383011 0.07775048 -0.09506983
00000000: 08be 1ebd f0a2 ac3d 2a12 263d 0569 13be
00000010: 80ea 443c f892 29bd 9529 57be efd5 e13d
00000020: c9f1 2c3e 7442 c33d c8ec 9ebd 271c a73d
00000030: 58e4 30bc 9abe 173d fbc9 c63c 9e29 98bd
00000040: 1d7a a13d 96d3 373d d23e 1dbd d5ed 2dbd
00000050: f4df 103e f59b 113d b315 f93d 7f3b 94bd
00000060: 4c15 d4bd 22bf 813d bfaa 57bd f67a 98bd
00000070: d371 a53d 294a b13c ec89 273e 6502 a43d
00000080: c322 bebc 5209 a63d 1e96 02be dcca d3bd
00000090: 6740 e6bd 4d65 b9bd f373 633d 7781 c23c
000000a0: 7ceb 49bd e580 1a3e 2a7e acbd 36e6 873c
000000b0: 6455 1a3d 2209 9c3d 4bee 2f3d 4999 113d
000000c0: 4339 b83d 760e 363c ad9f ccbb 26f6 993c
000000d0: 84d4 25bc 4dcb c03c c61f 76bc ddce 7a3d
000000e0: 482d dd3d 8121 edbd 4043 4cbd cd3c 8abd
000000f0: 8d86 2d3c 2507 a83d 26ac 053d 0dcc 81bd
00000100: 8820 47be 100e 39be 4b45 c4bd 5116 133e
00000110: 9a0d 51be eaea 7f3d 7278 9a3d 49de 933c
00000120: 2c9c ecbd d171 213c a95d 14be 91e0 233e
00000130: 3bf4 883d 9e44 22be 6dd3 103d 2fb5 70bc
00000140: 353e 84bd eff0 3a3e 3e1d c2bd b623 b63d
00000150: 142e 45be 8bd7 b53c 25fb 1b3e 4da7 d93d
00000160: 8dab f23d e757 683d 1462 703d 80d2 9abd
00000170: 9ff5 883d 19a7 85bc 34db fbbd f8d8 1dbe
00000180: f241 1fbe 3475 a9bc 99ae e03d 59ad ee3c
00000190: 009b 50be 1ac9 ca3d 6271 993d 79c5 173e
000001a0: 5375 623d 8f36 cf3d 8d90 f63d d0fb 4bbd
000001b0: b3a1 4abe abb7 3b3d e7e3 c9bb e0e0 0fbe
000001c0: 4304 743d 83c9 143e 13bd a6bd 5317 4fbe
000001d0: 79ca 51bd 49de 32bd ae93 8dbd d8d6 23bc
000001e0: 1c47 51be 9d74 5e3e ea62 25be 6b26 7bbe
000001f0: bbb5 64be 69fc 9b3c 5377 543e d4ca 4cbe
00000200: 21ac da3d 5a86 4e3d 86b7 303e e4b8 5a3e
00000210: a2a6 d3bd 7539 82bc e553 22be f7e7 9ebd
00000220: 34dd 4f3e 911c 393e 0723 963d 28a1 603e
00000230: ab81 2cbe ec71 62be 54bc 543e 43fa 39be
00000240: 237b 1ebd 0547 d6bd 7323 62be 4754 943d
00000250: 8fa8 f13d 5cb8 15bc 87d9 693c c845 15be
00000260: 235f f13d 9432 093e 374d 0a3d a860 653d
00000270: 7d29 1f3e 900f 38be 50ca c3bb 5fa9 363e
00000280: 3f7f 923d 39e1 0dbe 064c 2f3d 54d9 883d
00000290: a99a 36be 6375 3bbe 14be 6e3c ba9c 44bd
000002a0: c395 01be 9ec1 ea3d 3d9e 2fbe 52d1 25bd
000002b0: 23ae a53d 751b 3d3d 1e94 14be 86e1 2f3e
000002c0: 817e 013e 05a0 b33d 1e8e 413e 5456 8fbd
000002d0: 76e6 8fbd 375f 623d e29f 0b3d 847d 85bd
000002e0: 6236 dabd 0898 6ebd 4111 393e d841 223b
000002f0: ab88 3a3e 1351 163c 7192 963d 35f6 723d
00000300: 450e 2d3e 05b7 81bc 121e 233d 5838 7bbd
00000310: cbd0 e83c 7365 0dbe e0d0 063e 9cb9 c83d
00000320: b1a2 a23d 8430 fdbd 0052 87bd 55c9 7dbd
00000330: 71ff 06be 69bc 92bc 13fa 7f3d 8d2b 5ebd
00000340: 1d8d 5cbd e974 0f3d 3b4b 00be 011f 07be
00000350: af73 ff3c d96e 043e 4b72 b23d 336e aa3c
00000360: 2303 85bd 275a e03d b71a 80bd 6a6f 893d
00000370: 61f9 463c 6ec8 acbb 658b 03bd 00cb b93d
00000380: a986 2e3d e7b4 8fbd a322 fdbc ee51 ad3d
00000390: 5e9a b33a a753 ac3d 89ad 55be 8db7 17bc
000003a0: bdcb fdbd ee40 3e3d 7421 863c a84a c53d
000003b0: 7e6f b13d d369 db3d 5db1 d83d 4f47 4fbc
000003c0: d4e5 e73d e82b 69bd 8af8 293e dd6d 5fbd
000003d0: bc59 4c3c b500 acbb ee00 3a3d 131d 0c3e
000003e0: 1229 14be 425a dd3c d308 abbd a824 b13d
000003f0: 2aae ee3d 3e34 97bd a53b 9f3d f9b3 c2bd

encoder.lstm.bias_ih_l0 f4 [200]
0.17184165 0.1363383 0.23160385 0.025075072 0.040037014 0.17962754 0.25645566 0.026629454
-0.08140457 0.11955306 0.16666864 -0.07122959 0.06551328 0.15196441 0.1502638 0.15765224
0.049373917 -0.0076037208 0.035415027 -0.037455607 0.17969696 -0.0759611 0.17349139 0.10801448
0.13152951 -0.035055153 -0.0040297983 -0.04808787 0.1535769 -0.12567525 -0.09231825 0.082021534
0.2153479 -0.040210698 0.018575799 0.08600578 0.004793673 0.15800911 0.15576859 -0.024370173
0.12620609 -0.03595008 0.23557264 0.14988685 -0.041201163 -0.02292561 -0.038217515 0.046591315
-0.12416779 -0.0043233517 -0.049020592 0.06835287 0.021078516 -0.029990075 0.08965864 0.15744603
0.123634346 -0.11770045 0.0652534 -0.07191468 0.18582037 0.06211058 0.020156387 0.16273901
-0.112600096 0.11545502 -0.06254118 0.20650707 0.09893422 -0.043798376 0.048605215 0.05279906
0.058005728 0.12476634 -0.060086038 -0.095552325 -0.035959277 0.05552381 0.17184149 0.12328218
-0.056029554 -0.023990992 0.17294316 0.1164566 -0.025059523 -0.011175953 0.00432081 -0.020536788
-0.10188119 0.06861384 0.1328569 -0.027267225 0.11117826 0.013867116 -0.053222407 -0.06611393
0.08351554 0.11501377 -0.027623735 0.004524273 -0.18192329 0.11193793 0.20829707 0.041061196
0.03629451 0.16122535 0.13110167 -0.18067041 -0.036052782 -0.09289685 -0.082782194 -0.034455806
0.0514157 0.14831701 -0.10965677 -0.21954307 0.067954175 0.035827838 -0.15437514 0.17469393
-0.042066835 0.13983777 -0.056669854 -0.19034475 -0.09114244 0.09193771 0.15733947 -0.15884082
0.09928428 -0.0376942 0.020786561 0.17973977 0.024580257 0.055532876 -0.13317765 -0.20356026
0.059527453 0.018067265 0.110040635 0.09525254 0.042185515 -0.13281037 0.07789986 -0.18084341
-0.15554887 -0.18078293 -0.09772949 0.010735492 0.11112908 -0.043746077 0.065377116 -0.075835094
0.006843302 0.0068871076 0.19977503 0.1922447 0.15105288 -0.10469566 -0.00085084396 -0.07581447
0.016325405 -0.08290793 0.038314722 0.06577461 0.0098058805 -0.045261674 0.05812887 -0.13406713
0.14637952 0.16240633 0.17683579 0.07732305 0.20190507 -0.090040624 -0.026798608 -0.12922512
0.012783794 0.07315047 0.10517347 -0.051273603 0.016101077 0.0042592753 0.19435653 -0.049697477
0.03219491 0.16640992 -0.111032985 0.07910742 0.05532473 -0.00095115707 -0.08486345 0.15841208
-0.058008246 0.059634402 0.08518798 0.08260684 0.108775124 -0.09135553 -0.022945412 0.021873295
00000000: 42f7 2f3e 449c 0b3e 8f29 6d3e 3d6a cd3c
00000010: dafd 233d 48f0 373e 284e 833e 0326 da3c
00000020: 70b7 a6bd 3cd8 f43d 2fab 2a3e d2e0 91bd
00000030: d42b 863d 8f9c 1b3e c1de 193e 976f 213e
00000040: 4e3c 4a3d a228 f9bb 590f 113d 0d6b 19bd
00000050: 7b02 383e 7e91 9bbd baa7 313e b236 dd3d
00000060: acaf 063e fe95 0fbd 660c 84bb c9f7 44bd
00000070: 4343 1d3e 03b1 00be 5a11 bdbd e8fa a73d
00000080: 2984 5c3e f9b3 24bd 462c 983c cc23 b03d
00000090: 3e14 9d3b 24cd 213e cd81 1f3e f5a3 c7bc
000000a0: 2b3c 013e 6440 13bd f439 713e f07b 193e
000000b0: 8dc2 28bd 7dce bbbc f889 1cbd 89d6 3e3d
000000c0: af4b febd e7aa 8dbb d1c9 48bd 97fc 8b3d
000000d0: daac ac3c bfad f5bc f39e b73d 8839 213e
000000e0: 0134 fd3d ef0c f1bd 93a3 853d 0148 93bd
000000f0: b247 3e3e aa67 7e3d 021f a53c 0ea5 263e
00000100: e19a e6bd ae73 ec3d 9715 80bd 9776 533e
00000110: 069e ca3d ed65 33bd 4316 473d d443 583d
00000120: 6a97 6d3d 7f85 ff3d c71c 76bd f0b0 c3bd
00000130: 094a 13bd ef6c 633d 37f7 2f3e 5e7b fc3d
00000140: 3f7f 65bd c288 c4bc 0318 313e cc80 ee3d
00000150: a149 cdbc 581b 37bc 9595 8d3b c43c a8bc
00000160: 16a7 d0bd 6a85 8c3d a40b 083e 845f dfbc
00000170: 6db1 e33d e632 633c bdff 59bd bd66 87bd
00000180: 320a ab3d 578c eb3d 2c4b e2bc 5a40 943b
00000190: 194a 3abe b73f e53d d44b 553e c92f 283d
000001a0: 8da9 143d 4218 253e 843f 063e aa01 39be
000001b0: 15ac 13bd b440 bebd b689 a9bd 8821 0dbd
000001c0: 4599 523d 6ae0 173e bb93 e0bd e6cf 60be
000001d0: 8f2b 8b3d 36c0 123d 8414 1ebe f7e2 323e
000001e0: 464e 2cbd a231 0f3e a61e 68bd bce9 42be
000001f0: e3a8 babd d749 bc3d 991d 213e 2ba7 22be
00000200: 8e55 cb3d 3c65 1abd 9448 aa3c b40d 383e
00000210: 895c c93c 7176 633d b95f 08be 1a72 50be
00000220: 0fd3 733d cd01 943c fc5c e13d c413 c33d
00000230: b8ca 2c3d 71ff 07be f689 9f3d 042f 39be
00000240: 3448 1fbe 291f 39be 6626 c8bd ebe3 2f3c
00000250: a597 e33d 162f 33bd 70e4 853d 6e4f 9bbd
00000260: c73d e03b 3fad e13b d391 4c3e cbdb 443e
00000270: 9bad 1a3e ae6a d6bd 2c0b 5fba 9e44 9bbd
00000280: dbbc 853c a2cb a9bd e6ef 1c3d d7b4 863d
00000290: d8a8 203c 4e64 39bd 8a18 6e3d e548 09be
000002a0: 83e4 153e d84d 263e 7114 353e 8c5b 9e3d
000002b0: 34c0 4e3e 3867 b8bd c188 dbbc 9753 04be
000002c0: 1e73 513c eacf 953d 3065 d73d 4504 52bd
000002d0: 68e6 833c 6491 8b3b 6605 473e 958f 4bbd
000002e0: cfde 033d 5d67 2a3e 4365 e3bd 1203 a23d
000002f0: 2f9c 623d 1257 79ba e3cc adbd c736 223e
00000300: 0e9a 6dbd 3443 743d 0977 ae3d c62d a93d
00000310: 7ec5 de3d 9c18 bbbd 04f8 bbbc a02f b33c

encoder.lstm.bias_hh_l0 f4 [200]
0.15812838 -0.048643835 0.18760963 -0.025889019 0.027896931 0.17457524 0.13055046 0.13704214
0.020444103 0.12689401 0.15108927 0.013525783 0.061458785 -0.0004873839 -0.022996617 0.0028539104
0.11598867 0.08800097 -0.055427272 -0.028724466 0.116695076 0.02176099 0.021821734 0.0689609
0.03521961 0.040649563 -0.056688897 0.048335657 0.058320664 -0.05603743 0.11831487 0.004297778
0.24679734 0.026008278 0.0469359 -0.037804037 0.13161759 0.11075558 0.02884022 0.0125843445
0.13502026 0.14795788 0.17319353 0.11363965 -0.011374753 0.17045069 0.12530127 0.1649989
0.1207943 -0.031446833 -0.08402094 0.005412868 0.032910246 -0.10114199 -0.04475191 0.09963202
0.2225052 0.14190629 0.10633284 -0.03480038 0.0732591 -0.07314233 -0.0056366012 -0.10028889
0.0019557357 0.07051295 -0.038919266 0.17146257 0.12061511 0.08230643 0.17847404 -0.06556029
-0.0006538726 -0.0687188 0.17519994 0.080627166 -0.017453564 0.0014171032 0.078323975 0.00572942
0.090587154 -0.024646698 -0.026809512 -0.09304627 0.10209409 0.11818222 -0.052701805 0.14358127
0.011168383 -0.041563064 0.10726745 -0.08062375 0.075440235 -0.067623235 9.670021e-05 0.04199374
-0.011400283 -0.11025684 0.0952526 0.10543714 -0.1496808 -0.11023172 -0.024534646 -0.07029287
0.16568822 0.0744735 0.0147828525 -0.14959767 -0.01112491 0.048059266 -0.2253656 -0.077393636
0.08529509 0.123862855 -0.1789725 -0.12899245 -0.19786645 0.08377688 -0.1892409 0.04561893
-0.1536049 0.06314925 -0.14430217 -0.021546256 -0.13828178 0.07468935 0.1441865 -0.13617907
0.18330984 -0.010037426 0.05787416 0.056201585 -0.110987544 0.047689654 -0.053624548 -0.15780272
0.122738235 0.05098225 0.16904074 0.14203802 -0.12706451 -0.11764264 0.14412451 -0.17471124
-0.19602673 -0.21327235 -0.013344832 0.013040596 0.03020679 0.08085455 0.050181318 -0.038706087
0.019008383 -0.0220925 0.012865056 -0.045678735 0.15876137 -0.1041007 -0.0028221444 -0.0779879
0.21283115 0.09262055 0.22581272 0.09171036 -0.020561118 0.15481846 -0.04985809 0.03165741
0.05628261 0.0851357 0.19646417 -0.08114909 0.047281697 -0.0844823 0.033825967 -0.113740705
0.040127456 -0.09410271 0.016760413 -0.12100192 0.07057407 -0.0788919 -0.002756504 -0.041502107
0.017050881 0.10909794 0.024732882 0.049576372 -0.08806028 0.120975435 -0.13065313 0.055366073
0.1499844 0.19042274 0.11582273 0.14508541 0.03319768 0.008669447 0.03247863 -0.018138867
00000000: 68ec 213e c23e 47bd bd1c 403e 3515 d4bc
00000010: 1b88 e43c dac3 323e 05af 053e c654 0c3e
00000020: 647a a73c 81f0 013e 25b7 1a3e 3f9b 5d3c
00000030: 35bc 7b3d 8f87 ffb9 6763 bcbc ac08 3b3b
00000040: 788b ed3d da39 b43d b507 63bd 924f ebbc
00000050: d4fd ee3d 1b44 b23c 7ec3 b23c 5f3b 8d3d
00000060: 7042 103d 2880 263d 9e32 68bd 9cfb 453d
00000070: a6e1 6e3d 8187 65bd 114f f23d 60d4 8c3b
00000080: 71b8 7c3e 500f d53c dc3f 403d 68d8 1abd
00000090: c3c6 063e d2d3 e23d 5342 ec3c 912e 4e3c
000000a0: c042 0a3e 4582 173e a559 313e e8bb e83d
000000b0: 2c5d 3abc a08a 2e3e fa4e 003e 79f5 283e
000000c0: 0163 f73d 65ce 00bd 2c13 acbd 6e5e b13b
000000d0: e5cc 063d 8823 cfbd c74d 37bd df0b cc3d
000000e0: 67d8 633e e24f 113e 08c5 d93d d88a 0ebd
000000f0: de08 963d a5cb 95bd 3db3 b8bb 4364 cdbd
00000100: cd2b 003b 1869 903d cf69 1fbd e293 2f3e
00000110: 0e05 f73d 4690 a83d e6c1 363e 7944 86bd
00000120: a668 2bba 71bc 8cbd 9d67 333e db1f a53d
00000130: c7fa 8ebc 18be b93a 5268 a03d dcbd bb3b
00000140: c285 b93d dfe7 c9bc 9f9f dbbc 0b8f bebd
00000150: b516 d13d 8509 f23d d9dd 57bd f806 133e
00000160: 98fb 363c 083e 2abd 09af db3d 111e a5bd
00000170: 6980 9a3d 0d7e 8abd 88cb ca38 a101 2c3d
00000180: 41c8 3abc 57ce e1bd cc13 c33d 6def d73d
00000190: ec45 19be 2bc1 e1bd e2fc c8bc b5f5 8fbd
000001a0: 2caa 293e 9085 983d c733 723c 2230 19be
000001b0: 4145 36bc cbd9 443d 3dc6 66be 8e80 9ebd
000001c0: 31af ae3d cfab fd3d 9144 37be 9916 04be
000001d0: 819d 4abe 3693 ab3d 5ec8 41be eada 3a3d
000001e0: 9a4a 1dbe 6554 813d f3c3 13be c681 b0bc
000001f0: bd99 0dbe bbf6 983d a0a5 133e 8772 0bbe
00000200: 93b5 3b3e 0474 24bc 750d 6d3d a233 663d
00000210: 704d e3bd 3a56 433d 6aa5 5bbd 0997 21be
00000220: 2f5e fb3d c4d2 503d 0419 2d3e 6a72 113e
00000230: 331d 02be a0ee f0bd 6095 133e 81e7 32be
00000240: 3bbb 48be 1164 5abe 48a4 5abc 39a8 553c
00000250: 3b74 f73c 1297 a53d ed8a 4d3d 468a 1ebd
00000260: 78b7 9b3c 55fb b4bc f5c7 523c a019 3bbd
00000270: 5792 223e bf32 d5bd baf3 38bb 1fb8 9fbd
00000280: 69f0 593e d8af bd3d 733b 673e a4d2 bb3d
00000290: ca6f a8bc bb88 1e3e ff37 4cbd 33ab 013d
000002a0: 9888 663d a05b ae3d e72d 493e 7e31 a6bd
000002b0: 74aa 413d 0e05 adbd 198d 0a3d e3f0 e8bd
000002c0: b05c 243d ecb8 c0bd 224d 893c dbcf f7bd
000002d0: 2389 903d 1492 a1bd 77a6 34bb 1dfe 29bd
000002e0: 4aae 8b3c be6e df3d 9d9c ca3c 9810 4b3d
000002f0: f358 b4bd f8c1 f73d efc9 05be 89c7 623d
00000300: 8395 193e 2efe 423e 7834 ed3d 4591 143e
00000310: 4afa 073d 4c0a 0e3c 5008 053d f697 94bc

encoder.lstm.weight_ih_l0_reverse f4 [200, 50]
0.08706679 -0.052975614 0.18583955 0.02547898 -0.0029576677 -0.17927939 0.016920768 -0.13777886
-0.0957788 0.0313236 0.06094049 -0.15119636 0.08952376 0.05712137 0.053338937 0.103592396
0.063776664 -0.13215956 0.09085284 0.13627762 0.103962146 0.027378539 0.053756893 0.1789049
0.16164953 -0.16170786 0.07116956 0.08947844 0.020129826 0.18331508 0.053701356 0.037120827
-0.117422625 -0.13691464 -0.015145265 0.038123474 0.11017279 0.027548729 -0.0065024975 -0.12843065
-0.13794573 -0.19442125 0.017590199 0.061809715 -0.036932975 -0.18652622 0.16885117 -0.065753415
0.10308086 0.05591432 0.09664668 -0.102475464 0.06321998 0.021917526 0.004305721 -0.054145798
-0.13258995 -0.22197518 -0.1886048 0.06811362 0.03148238 -0.18872738 0.12751222 0.012893213
-0.06418942 -0.03632928 -0.062175434 -0.029022936 -0.025324108 0.13912024 0.057286844 -0.16859446
0.11662625 0.1047884 -0.20197551 -0.052100543 -0.13250358 -0.0028187872 0.07299411 0.109734334
0.09912889 0.009268205 0.117457755 -0.031694513 -0.10893076 -0.031493634 -0.044154868 0.12503435
0.26007435 0.13775249 -0.017056897 -0.09137992 -0.10776674 -0.12719938 -0.14376768 0.11149865
0.1996669 -0.16035531 -0.06685518 0.01856441 -0.106467925 0.095450886 -0.004450231 -0.12075457
-0.010130252 -0.084189355 -0.15099305 -0.11238953 -0.031559262 -0.009367633 -0.06342962 -0.0775274
-0.008225856 -0.031406667 0.07997436 -0.13282084 0.08863775 -0.058126755 0.02219612 0.04670616
0.15125412 -0.09371843 0.020206627 0.18124826 -0.03539546 0.05366811 -0.20886804 0.06111292
0.2085568 0.054884505 0.21068548 0.05632958 0.15748566 0.007487068 -0.01343449 0.016202668
0.16278695 0.00877641 -0.09073162 -0.02245796 -0.10001377 -0.12501346 -0.066354625 -0.18982178
-0.084176056 0.1006146 0.024520686 0.029776389 -0.013031871 0.053034183 0.119112566 -0.04365698
0.17253257 -0.05874351 -0.12076236 0.04176312 -0.058026813 0.073195264 -0.025138827 -0.098626696
0.0868034 -0.050365377 -0.08693831 0.09534745 0.03846099 -0.044807542 0.1634429 -0.0035506233
0.14620982 0.060624667 -0.030095804 0.024809435 0.15803792 0.024586577 0.094781995 0.10867872
0.076765224 -0.09089395 0.08840502 -0.1788846 0.04535971 -0.038327698 -0.14914967 -0.0041720127
0.043082863 0.15510763 0.017965809 0.0651633 -0.19788596 0.017323509 -0.15532252 -0.21021357
-0.005945113 -0.009263918 -0.011049092 -0.15593971 0.016130425 -0.011497826 -0.027379049 -0.09028078
-0.06594313 0.009496491 -0.012153737 -0.06151928 -0.0011202702 -0.09554311 -0.09471357 -0.0600174
-0.119699895 0.07548926 -0.006293895 0.1310154 -0.011649417 -0.0427726 -0.08874831 -0.085309416
0.11518095 0.030875161 0.1016746 0.008246962 -0.05034629 -0.08774747 0.11947011 -0.020200763
-0.087145835 0.097555816 0.0038356825 -0.118306845 0.1279802 -0.13164005 0.055465423 0.10941981
-0.026301002 0.06811749 -0.116429225 0.02534666 -0.114346445 -0.03876018 0.087459974 0.0014273752
-0.13426822 -0.14905964 -0.03949231 -0.013926377 -0.14614868 0.006792103 -0.04696455 0.09266724
0.05049591 0.0042351186 -0.07354441 0.0047993693 0.08458477 -0.09396322 0.057164583 0.106082566
00000000: 1350 b23d f5fc 58bd b94c 3e3e 4bb9 d03c
00000010: 6ed5 41bb 0495 37be 6c9d 8a3c e715 0dbe
00000020: ad27 c4bd 2d4d 003d bc9c 793d 38d3 1abe
00000030: 3c58 b73d 19f8 693d ee79 5a3d 4028 d43d
00000040: 579d 823d d654 07be 0e11 ba3d 5c8c 0b3e
00000050: 1bea d43d f548 e03c 3030 5c3d d932 373e
00000060: 7487 253e bf96 25be 59c1 913d 7940 b73d
00000070: 4ee7 a43c f3b6 3b3e f4f5 5b3d 020c 183d
00000080: 467b f0bd 5a33 0cbe d823 78bc 5c27 1c3d
00000090: 46a2 e13d dfad e13c e712 d5bb 5383 03be
000000a0: a541 0dbe 5d16 47be 5219 903c 2f2c 7d3d
000000b0: 0847 17bd bb00 3fbe 52e7 2c3e baa9 86bd
000000c0: 0f1c d33d 6a06 653d b2ee c53d a8de d1bd
000000d0: 7a79 813d 628c b33c 0117 8d3b fcc7 5dbd
000000e0: a9c5 07be 764d 63be 9e21 41be 277f 8b3d
000000f0: abf3 003d c041 41be 9092 023e 0e3e 533c
00000100: be75 83bd 03ce 14bd abab 7ebd 82c1 edbc
00000110: 8174 cfbc 8975 0e3e 9ca5 6a3d 07a4 2cbe
00000120: bed9 ee3d 4d9b d63d abd2 4ebe 6167 55bd
00000130: 05af 07be 67bb 38bb f07d 953d 65bc e03d
00000140: 1604 cb3d abd9 173c b18d f03d 1bd2 01bd
00000150: 1717 dfbd 78ff 00bd bcdb 34bd 0109 003e
00000160: 7728 853e fd0e 0d3e e8ba 8bbc 6525 bbbd
00000170: cfb4 dcbd 8e40 02be d637 13be 6759 e43d
00000180: 7b75 4c3e 2f34 24be 5eeb 88bd 6414 983c
00000190: db0b dabd c17b c33d 3ed3 91bb 2c4e f7bd
000001a0: 5bf9 25bc 786b acbd ec9d 1abe 7b2c e6bd
000001b0: 4944 01bd b37a 19bc 63e7 81bd afc6 9ebd
000001c0: bec5 06bc 47a4 00bd 99c9 a33d 3002 08be
000001d0: b587 b53d 5216 6ebd a3d4 b53c f54e 3f3d
000001e0: 5ce2 1a3e 73ef bfbd 5e88 a53c 2599 393e
000001f0: d4fa 10bd 18d3 5b3d 81e1 55be 8b51 7a3d
00000200: ea8f 553e 93ce 603d efbd 573e d8b9 663d
00000210: ec43 213e 1456 f53b 561c 5cbc 75bb 843c
00000220: 9fb1 263e eeca 0f3c 80d1 b9bd c1f9 b7bc
00000230: 05d4 ccbd 8703 00be efe4 87bd a460 42be
00000240: 7f64 acbd 070f ce3d 9bdf c83c 9ded f33c
00000250: a183 55bc 5f3a 593d 4af1 f33d a9d1 32bd
00000260: 61ac 303e 099d 70bd 4252 f7bd ce0f 2b3d
00000270: 86ad 6dbd 66e7 953d f1ef cdbc cbfc c9bd
00000280: fbc5 b13d ed4b 4ebd b60c b2bd 8645 c33d
00000290: 4589 1d3d 1d88 37bd 935d 273e 93b1 68bb
000002a0: 07b8 153e 9251 783d 7a8b f6bc 283d cb3c
000002b0: b1d4 213e ca69 c93c 101d c23d f392 de3d
000002c0: 1637 9d3d 9b26 babd b10d b53d 862d 37be
000002d0: 1acb 393d 81fd 1cbd b1ba 18be 61b5 88bb
000002e0: a877 303d 89d4 1e3e 082d 933c 5674 853d
000002f0: 9ea2 4abe 08ea 8d3c de0c 1fbe 3a42 57be
00000300: 39cf c2bb b0c7 17bc 4007 35bc a9ae 1fbe
00000310: f423 843c 6161 3cbc 074a e0bc 21e5 b8bd
00000320: 310d 87bd 2c97 1b3c 7820 47bc a4fb 7bbd
00000330: 08d6 92ba 1bac c3bd 30f9 c1bd ced4 75bd
00000340: 3825 f5bd 1d9a 9a3d 053d cebb e728 063e
00000350: 32dd 3ebc 5232 2fbd adc1 b5bd b4b6 aebd
00000360: fde3 eb3d e8ed fc3c c63a d03d 441e 073c
00000370: e937 4ebd f2b4 b3bd bfac f43d 127c a5bc
00000380: 8479 b2bd 58cb c73d 1360 7b3b dc4a f2bd
00000390: 3e0d 033e a6cc 06be b62f 633d 7e17 e03d
000003a0: 3375 d7bc 2f81 8b3d 7272 eebd cca3 cf3c
000003b0: 782e eabd ffc2 1ebd 371e b33d c416 bb3a
000003c0: 9c7d 09be 17a3 18be b0c2 21bd 752b 64bc
000003d0: 00a8 15be 4a90 de3b e65d 40bd 52c8 bd3d
000003e0: cdd4 4e3d c0c6 8a3b 749e 96bd 0744 9d3b
000003f0: c83a ad3d ca6f c0bd 6925 6a3d d141 d93d

encoder.lstm.weight_hh_l0_reverse f4 [200, 50]
-0.009428404 -0.057191897 -0.13685715 -0.16947994 0.03780563 0.18307838 -0.0007564311 0.032620776
0.15132076 0.0011398759 -0.013352147 -0.022638306 0.007713739 -0.22658311 -0.15958105 -0.22706413
0.014915074 -0.019090004 0.0045793797 0.060183156 0.101595975 0.024040984 0.21692103 -0.19469798
0.24383923 -0.1770524 0.2547078 0.17894538 0.019660879 -0.14171657 -0.046185475 0.17460345
0.10959874 -0.14010955 0.18898036 0.20639761 -0.20814462 0.0005186043 -0.019057486 -0.18921472
0.03254513 0.15509395 -0.049522743 0.122350164 0.16358976 -0.018527785 -0.21588889 -0.07157042
0.100180134 0.0015030253 -0.0814424 -0.067730136 -0.10591997 0.065134466 -0.02527875 -0.036032926
-0.0035836978 0.1531136 -0.15313184 0.007559689 -0.14789666 0.12786633 -0.1699067 0.035064943
0.05735884 -0.18965836 -0.0865647 -0.029219747 0.046694513 0.18590759 0.10979674 -0.100672714
0.10787115 -0.11844806 0.1310825 -0.103005625 0.0985825 0.030423738 0.0325983 0.07661465
-0.13393778 0.021530146 -0.050747413 0.042407352 -0.11941245 -0.027736729 -0.041854244 0.08975324
0.056123752 -0.091028884 -0.13231763 -0.07389597 -0.19351147 0.06257835 -0.06193632 0.16013381
0.04422678 -0.053334054 -0.06855437 -0.02336245 -0.09064688 0.032775674 0.047829643 0.12989914
0.11948537 0.07300186 -0.1738333 -0.080718376 -0.09004017 -0.072134554 0.08437854 -0.090130076
-0.09964032 -0.19410907 -0.14657256 0.05259033 0.035197396 -0.0701241 -0.041247662 0.11425676
0.1456354 0.01798124 -0.033644415 -0.026707547 0.14815414 -0.18057095 0.19336015 -0.07692949
0.07430588 -0.054668628 -0.15700263 0.049069997 -0.031916384 -0.001769786 0.057714995 0.1890323
0.046745174 0.09818277 -0.1796565 -0.09077561 0.030672675 -0.0103162145 -0.18029326 -0.023468453
0.17581037 0.038588785 0.044173237 0.08593301 0.07114639 0.07106004 -0.100338906 0.0012913133
0.08800302 -0.07298671 -0.10755767 -0.045485158 -0.023511315 0.11031975 0.013225795 -0.044838943
0.030512473 -0.034885637 -0.08013271 -0.058427505 -0.091960154 -0.03154182 0.07860487 -0.06120025
0.06776687 0.055804055 0.1598799 -0.0829798 0.16065548 -0.12393296 0.116449445 -0.16865976
0.010275681 0.09941301 -0.14435369 0.0756332 0.007646949 0.06876918 -0.051220845 -0.086288914
-0.0111569 0.08080788 -0.16541943 -0.052906573 0.020854257 -0.18404305 -0.054417226 0.18257436
0.0658268 0.097006924 -0.05878188 0.13113195 -0.06361021 0.08260458 0.12710346 0.114710696
0.04581522 -0.040814802 0.11788319 0.062436976 0.00016823398 -0.030197782 -0.035002664 0.07084518
0.09021278 0.08557495 0.06886256 -0.045411233 0.048244826 0.006453928 0.09358076 0.012087994
-0.11009144 0.043195434 0.057961848 -0.112905286 0.022576967 -0.110469185 0.039001655 -0.08934111
-0.10433347 -0.028817669 0.039812975 0.08040629 0.053175516 -0.050620202 0.021635653 0.04921241
-0.043971673 -0.048154864 -0.10746421 0.05344268 0.11416993 -0.13949063 0.11692351 0.059858102
-0.060743235 0.09890355 -0.072049566 -0.13049878 -0.039650686 -0.019025462 -0.045764122 -0.051728778
-0.015247712 0.10306682 0.06139114 -0.06277156 -0.013076858 0.07431898 0.0138165755 -0.11215675
00000000: 9879 1abc 0d42 6abd 4824 0cbe 268c 2dbe
00000010: 14da 1a3d e678 3b3e 3b4b 46ba 5d9d 053d
00000020: d4f3 1a3e e367 953a f7c2 5abc f873 b9bc
00000030: 88c3 fc3b 6705 68be 3769 23be 8083 68be
00000040: 5b5e 743c a462 9cbc 9f0e 963b 9d82 763d
00000050: 8d11 d03d 99f1 c43c 8c20 5e3e e85e 47be
00000060: feb0 793e 394d 35be 1069 823e 753d 373e
00000070: da0f a13c 261e 11be fb2c 3dbd 3fcb 323e
00000080: 4e75 e03d e178 0fbe 1184 413e e559 533e
00000090: dd23 55be f2f2 073a 721e 9cbc 81c1 41be
000000a0: 0b4e 053d f3d0 1e3e 5cd8 4abd b992 fa3d
000000b0: 1384 273e 95c7 97bc fa11 5dbe 8393 92bd
000000c0: 3e2b cd3d 2901 c53a 46cb a6bd 19b6 8abd
000000d0: 92ec d8bd 3865 853d 6215 cfbc 4397 13bd
000000e0: 79dc 6abb d0c9 1c3e 98ce 1cbe 45b7 f73b
000000f0: 3972 17be 64ef 023e 06fc 2dbe 42a0 0f3d
00000100: 1af1 6a3d cd35 42be d548 b1bd 405e efbc
00000110: bf42 3f3d 8f5e 3e3e 1ddd e03d 7f2d cebd
00000120: 8deb dc3d e594 f2bd 7e3a 063e 9df4 d2bd
00000130: 9fe5 c93d 343b f93c cc85 053d 24e8 9c3d
00000140: fc26 09be fd5f b03c 85dc 4fbd 55b3 2d3d
00000150: 848e f4bd 2338 e3bc 5b6f 2bbd 8cd0 b73d
00000160: 05e2 653d 5a6d babd 467e 07be c556 97bd
00000170: df27 46be 1429 803d f0b0 7dbd 1efa 233e
00000180: 2427 353d cf74 5abd 3c66 8cbd 9c62 bfbc
00000190: 12a5 b9bd c93f 063d 04e9 433d 4804 053e
000001a0: bfb4 f43d 0082 953d 5b01 32be ad4f a5bd
000001b0: fb66 b8bd 48bb 93bd a8ce ac3d 1e96 b8bd
000001c0: 3910 ccbd 87c4 46be 1e17 16be f568 573d
000001d0: 252b 103d 399d 8fbd 4ff3 28bd 73ff e93d
000001e0: 7221 153e 654d 933c bace 09bd c9c9 dabc
000001f0: b8b5 173e 97e7 38be 3400 463e 358d 9dbd
00000200: ae2d 983d 36ec 5fbd 4cc5 20be 9ffd 483d
00000210: c1ba 02bd 2af8 e7ba 8f66 6c3d af91 413e
00000220: de77 3f3d 0c14 c93d e0f7 37be 90e8 b9bd
00000230: 4345 fb3c 5705 29bc cc9e 38be ea40 c0bc
00000240: a207 343e 460f 1e3d ffee 343d a5fd af3d
00000250: 33b5 913d ed87 913d 7c7e cdbd 4941 a93a
00000260: ed3a b43d 0e7a 95bd 3247 dcbd a54e 3abd
00000270: cd9a c0bc 52ef e13d 01b1 583c 0aa9 37bd
00000280: 4bf5 f93c 3ee4 0ebd 9e1c a4bd ae51 6fbd
00000290: 9b55 bcbd ff31 01bd 97fb a03d 1dad 7abd
000002a0: 5bc9 8a3d cb92 643d 8eb7 233e 50f1 a9bd
000002b0: df82 243e 90d0 fdbd 0c7d ee3d 25b5 2cbe
000002c0: 545b 283c 0c99 cb3d 74d1 13be 94e5 9a3d
000002d0: 4293 fa3b dbd6 8c3d f3cc 51bd 3eb8 b0bd
000002e0: 6ecb 36bc 9a7e a53d b663 29be 90b4 58bd
000002f0: 8cd6 aa3c c875 3cbe 99e4 5ebd c6f4 3a3e
00000300: 34d0 863d 91ab c63d 45c5 70bd 7447 063e
00000310: 1246 82bd 972c a93d 6927 023e 71ed ea3d
00000320: bda8 3b3d 6c2d 27bd be6c f13d eabd 7f3d
00000330: f767 3039 5761 f7bc f45e 0fbd 4717 913d
00000340: 7ac1 b83d eb41 af3d d007 8d3d 2101 3abd
00000350: 5e9c 453d 797b d33b 45a7 bf3d b90c 463c
00000360: 9f77 e1bd b2ed 303d 6769 6d3d e33a e7bd
00000370: 55f3 b83c ab3d e2bd 33c0 1f3d 79f8 b6bd
00000380: c9ac d5bd 0813 ecbc ee12 233d 0eac a43d
00000390: 92ce 593d 2157 4fbd 413d b13c f492 493d
000003a0: a41b 34bd 093e 45bd 3216 dcbd b6e6 5a3d
000003b0: edd1 e93d a2d6 0ebe 9875 ef3d c52d 753d
000003c0: e6cd 78bd f28d ca3d b98e 93bd 79a1 05be
000003d0: c268 22bd 49db 9bbc 2973 3bbd 8ee1 53bd
000003e0: 8ad1 79bc b214 d33d 4775 7b3d 608e 80bd
000003f0: 5140 56bc 8d34 983d eb5e 623c 70b2 e5bd

encoder.lstm.bias_ih_l0_reverse f4 [200]
0.07806195 0.023285791 0.12339041 0.051825102 -0.15594675 0.16116163 0.06644489 0.1160641
0.038966276 0.07270772 -0.034340337 0.13018592 0.09954351 -0.07046662 -0.020587007 0.10390638
-0.08045944 0.036782317 0.14065091 -0.01092297 -0.06818971 0.055306032 0.15054308 0.1562666
0.05528742 -0.03673572 0.13473724 0.07410446 0.17016631 0.023880057 0.1624867 0.08988522
0.17147256 0.08838779 0.13471922 0.09313866 -0.030646972 -0.013306801 -0.10664949 0.05986324
-0.017283427 -0.0047913254 0.076703295 0.12260538 0.13461633 0.20405787 -0.0353871 -0.021168986
0.11270554 0.068199046 0.16632694 0.08862289 0.049201757 0.056256462 -0.16580015 -0.031338856
0.039870426 0.15710981 0.029107124 0.04814659 0.02959632 0.13211228 0.001079193 0.08863304
0.026775876 0.043617055 -0.09164194 0.050501637 0.0034376155 -0.010580972 -0.118170574 0.015156667
-0.029214246 0.13046184 0.090050474 0.14677887 0.06854095 -0.111517705 0.06657405 0.17038085
0.085035995 0.05606462 0.045596343 0.087380715 0.050511062 0.14603534 0.077713124 0.19272837
-0.035579097 -0.005542871 -0.06729891 -0.02948616 0.06799405 0.13133328 0.0045554093 0.0039810617
0.0692958 0.019718235 -0.058295038 -0.09483468 -0.12709416 -0.0397858 -0.14210704 0.08011866
-0.03066382 0.13266808 -0.08904638 0.06500764 -0.05371323 -0.00618171 0.027490286 0.08105302
-0.15205595 -0.14685641 -0.0849095 -0.016321713 -0.04504024 0.0918719 0.03774515 0.12185808
0.124461144 0.0790118 0.029823808 -0.02826682 0.008471561 -0.12619969 0.06462151 0.02502015
-0.08522702 0.017340487 -0.09814905 -0.04074456 0.041617528 0.06731884 0.059668805 0.030863546
0.035487343 -0.09106964 -0.08616073 -0.0056696413 -0.12881285 0.142178 -0.1384897 0.015142551
0.09235316 0.1435007 -0.11896496 0.038425025 0.042149387 0.07248706 0.010105787 -0.061518617
0.14158344 -0.09242299 0.07028329 0.10956447 -0.039473142 -0.008111311 0.19895232 0.15044759
0.054269344 0.08506802 0.14166293 0.01965371 -0.0066817687 0.055842 0.09383652 0.10271008
-0.035192527 -0.018779965 -0.103749886 0.11698549 0.048146375 0.057561994 0.1419297 0.00041162415
0.12533851 0.08333681 0.059026703 0.11796587 0.19441265 0.082176805 -0.098034486 -0.03920982
0.100279346 -0.14003259 0.22076873 -0.0891335 -0.090170614 0.14570963 0.12888731 0.13107547
-0.010972151 0.077130236 -0.013637145 -0.045760743 0.03310738 0.077380404 0.031781644 -0.1255034
00000000: f2de 9f3d d8c1 be3c 1cb4 fc3d 8f46 543d
00000010: 81b0 1fbe 8e07 253e 4214 883d 04b3 ed3d
00000020: 1a9b 1f3d c9e7 943d 74a8 0cbd 754f 053e
00000030: 78dd cb3d ce50 90bd 15a6 a8bc decc d43d
00000040: ebc7 a4bd 0ea9 163d cb06 103e 42f6 32bc
00000050: 0ca7 8bbd 9488 623d f727 1a3e 5a04 203e
00000060: 1075 623d 3278 16bd 8ff8 093e 14c4 973d
00000070: 1440 2e3e 1ca0 c33c ea62 263e be15 b83d
00000080: 8196 2f3e a804 b53d d6f3 093e 7bbf be3d
00000090: 5c0f fbbc c504 5abc 0c6b dabd 2833 753d
000000a0: f995 8dbc 8d00 9dbb 9e16 9d3d 8818 fb3d
000000b0: ddd8 093e 8cf4 503e 10f2 10bd 956a adbc
000000c0: 2ad2 e63d f1ab 8b3d 9c51 2a3e eb7f b53d
000000d0: c887 493d 2d6d 663d 84c7 29be 2c5d 00bd
000000e0: 2c4f 233d 65e1 203e 1072 ee3c 5c35 453d
000000f0: fb73 f23c 7148 073e b573 8d3a 3d85 b53d
00000100: 1559 db3c cca7 323d c5ae bbbd ceda 4e3d
00000110: 9e49 613b d05b 2dbc 6a03 f2bd ab53 783c
00000120: b752 efbc ca97 053e 626c b83d 334d 163e
00000130: 335f 8c3d 6563 e4bd fa57 883d 5178 2e3e
00000140: 5a27 ae3d 04a4 653d 3bc3 3a3d a9f4 b23d
00000150: b0e4 4e3d 4a8a 153e 0f28 9f3d 965a 453e
00000160: 63bb 11bd f9a0 b5bb 03d4 89bd f68c f1bc
00000170: 7740 8b3d 3b7c 063e 8b45 953b 9173 823b
00000180: f5ea 8d3d 2388 a13c c7c6 6ebd af38 c2bd
00000190: f924 02be 6ff6 22bd 8284 11be 4115 a43d
000001a0: b132 fbbc 24da 073e f35d b6bd ba22 853d
000001b0: 6702 5cbd f18f cabb 4f33 e13c 20ff a53d
000001c0: 8eb4 1bbe 8761 16be 08e5 adbd 1db5 85bc
000001d0: 1d7c 38bd 5627 bc3d a99a 1a3d bb90 f93d
000001e0: 7ce5 fe3d f0d0 a13d 0f51 f43c d18f e7bc
000001f0: 4dcc 0a3c 7e3a 01be 4858 843d 0ff7 cc3c
00000200: 818b aebd a30d 8e3c 5e02 c9bd c5e3 26bd
00000210: 2477 2a3d 76de 893d 4767 743d 8cd5 fc3c
00000220: 2d5b 113d b882 babd 0975 b0bd 66c8 b9bb
00000230: 84e7 03be 1c97 113e 3ed0 0dbe 7618 783c
00000240: a723 bd3d d9f1 123e e7a3 f3bd 8f63 1d3d
00000250: d6a4 2c3d 1974 943d be92 253c f2fa 7bbd
00000260: 40fb 103e 4448 bdbd b0f0 8f3d 5663 e03d
00000270: 97ae 21bd 4ee5 04bc 28ba 4b3e ef0e 1a3e
00000280: 8849 5e3d 2438 ae3d 1610 113e d100 a13c
00000290: bdf2 dabb 95ba 643d 5d2d c03d aa59 d23d
000002a0: 0a26 10bd 71d8 99bc d27a d4bd 1796 ef3d
000002b0: 2235 453d 20c6 6b3d 0556 113e 42cf d739
000002c0: bd58 003e 7dac aa3d fcc5 713d 1798 f13d
000002d0: 1c14 473e 504c a83d 4ec6 c8bd 7a9a 20bd
000002e0: 425f cd3d b464 0fbe 3311 623e a08b b6bd
000002f0: 5fab b8bd e834 153e 09fb 033e a638 063e
00000300: 89c4 33bc 75f6 9d3d 556e 5fbc 9e6f 3bbd
00000310: 9b9b 073d 9e79 9e3d 782d 023d f783 00be

encoder.lstm.bias_hh_l0_reverse f4 [200]
0.019744193 -0.003307301 0.020208718 0.04731478 0.10297963 0.10981407 -0.0065202033 0.15523644
0.012470873 0.07330381 0.14876097 -0.07791903 0.102118716 0.026442766 0.1317411 0.009682232
-0.01123646 -0.0529394 -0.040501364 0.12794222 -0.027571399 -0.050430913 0.052233145 0.006937481
-0.07545861 0.10823067 0.15382536 0.024714982 -0.051777355 0.05184579 -0.051841963 0.19467983
0.014920087 0.18190365 -0.03838196 -0.08272212 0.12321854 0.11469787 0.07412091 -0.02637084
-0.13905063 0.14744286 0.15213464 0.12405315 -0.1226806 0.04053504 -0.0055736364 -0.027376564
-0.02096146 -0.10203784 0.04082687 0.12153994 -0.036166854 0.051210318 0.10359281 -0.09376479
0.123188026 0.1654808 0.10540885 -0.057052568 0.043590087 -0.029655885 0.19380057 0.06491002
0.07656886 0.042323 -0.06355449 0.055856265 0.0020830105 -0.004252518 -0.09045762 0.13696542
0.02618996 0.02982125 -0.04772319 0.01784744 0.21253134 0.00028779556 0.13314077 0.12698098
0.1311612 0.1933979 0.031367645 0.14209306 -0.09297458 0.13338457 0.066773094 -0.05999682
-0.058331978 0.16440405 -0.08682242 0.17604682 -0.040172108 0.18266349 -0.11459626 0.13492528
0.021767797 0.08995689 -0.0043754843 0.10979197 -0.004695358 -0.1780337 -0.113103405 0.10672841
0.008843729 0.07219031 -0.104517154 0.14307918 -0.127248 -0.10110311 -0.07593332 0.011416939
-0.17994197 -0.012293055 -0.12822992 -0.009164694 -0.11128605 -0.005919341 0.1677567 0.026277218
0.08461272 -0.015514553 0.13028139 -0.14026678 0.16566075 -0.09045597 0.14144687 0.029791338
-0.10499307 0.061409157 -0.13730909 0.018417 0.12017281 -0.16244382 -0.073531576 0.10648966
-0.1325265 0.15775897 -0.06484133 -0.16881764 -0.07278973 0.05196968 -0.04757146 -0.021521596
0.025661224 0.10216816 0.027362635 -0.12293187 0.037246026 -0.09279808 0.21281423 0.037558507
0.026569203 0.026197886 -0.059099995 -0.084117696 0.11771579 0.01770234 0.17156607 0.17624806
0.00026029837 0.08707492 -0.06211916 -0.0902761 0.070193134 0.009494554 -0.10063452 0.03635291
0.13299137 -0.064201504 -0.091847405 0.011889983 0.0037136504 0.021512417 -0.0352396 -0.0423562
0.0957152 0.06429512 0.1613873 0.07238699 0.17199942 0.20561509 -0.03453615 0.03950383
0.008497335 -0.12770621 0.15798725 0.05534623 0.15841734 0.18094026 0.030896347 0.040726047
0.1388236 0.108285956 0.07261328 0.15570138 0.11553181 -0.10200564 0.089020096 -0.11808841
00000000: 93be a13c 4ebf 58bb c18c a53c 25cd 413d
00000010: fce6 d23d 33e6 e03d 6ea7 d5bb 4df6 1e3e
00000020: a252 4c3c 4f20 963d cc54 183e 0394 9fbd
00000030: 9e23 d13d 809e d83c 24e7 063e 39a2 1e3c
00000040: 2119 38bc fcd6 58bd c2e4 25bd 4903 033e
00000050: 6add e1bc a590 4ebd 6cf2 553d cf53 e33b
00000060: 0b8a 9abd 0ba8 dd3d 6584 1d3e 1377 ca3c
00000070: 7e14 54bd 405c 543d 3d58 54bd 265a 473e
00000080: 6173 743c f344 3a3e 6736 1dbd 376a a9bd
00000090: 005a fc3d b8e6 ea3d b4cc 973d a907 d8bc
000000a0: 4a63 0ebe 43fb 163e 2fc9 1b3e 940f fe3d
000000b0: f73f fbbd 1208 263d 0da3 b6bb d144 e0bc
000000c0: 5eb7 abbc 37f9 d0bd 133a 273d efe9 f83d
000000d0: b223 14bd e9c1 513d 7828 d43d c107 c0bd
000000e0: 014a fc3d cd73 293e 98e0 d73d f4af 69bd
000000f0: 858b 323d e6f0 f2bc a873 463e 8bef 843d
00000100: 22d0 9c3d e25a 2d3d db28 82bd 8ac9 643d
00000110: 1e83 083b b558 8bbb d841 b9bd aa40 0c3e
00000120: 548c d63c b24b f43c 6479 43bd cb34 923c
00000130: d1a1 593e 44e3 9639 0e56 083e 4d07 023e
00000140: 1f4f 063e 190a 463e 5c7b 003d d880 113e
00000150: 7569 bebd f795 083e 55c0 883d 3abf 75bd
00000160: 83ed 6ebd 8959 283e f4cf b1bd 9e45 343e
00000170: 828b 24bd 230c 3b3e 72b1 eabd da29 0a3e
00000180: 6152 b23c 513b b83d 3960 8fbb 9dda e03d
00000190: 85db 99bb 774e 36be c2a2 e7bd 6d94 da3d
000001a0: 4ae5 103c 83d8 933d 170d d6bd 5983 123e
000001b0: 4d4d 02be 260f cfbd ee82 9bbd 1d0e 3b3c
000001c0: b542 38be cf68 49bc b44e 03be 8327 16bc
000001d0: f1e9 e3bd 08f7 c1bb 6ac8 2b3e 5243 d73c
000001e0: 6f49 ad3d c030 7ebc 7c68 053e 18a2 0fbe
000001f0: f9a2 293e fb40 b9bd 73d7 103e f70c f43c
00000200: 9b06 d7bd 2b88 7b3d c19a 0cbe 40df 963c
00000210: 2a1d f63d ac57 26be b997 96bd 4017 da3d
00000220: 07b5 07be 918b 213e 88cb 84bd 88de 2cbe
00000230: c812 95bd 29de 543d 4bda 42bd 0f4e b0bc
00000240: 7d37 d23c 8a3d d13d 9b27 e03c b4c3 fbbd
00000250: 4a8f 183d eb0c bebd f9eb 593e f3d6 193d
00000260: a8a7 d93c f39c d63c d612 72bd e645 acbd
00000270: fa14 f13d 7f04 913c 04af 2f3e 5f7a 343e
00000280: a878 8839 5654 b23d a970 7ebd ade2 b8bd
00000290: 6bc1 8f3d 0c8f 1b3c 7919 cebd cae6 143d
000002a0: e42e 083e 147c 83bd 7e1a bcbd 34ce 423c
000002b0: b760 733b cf3a b03c 6657 10bd b27d 2dbd
000002c0: 5506 c43d 29ad 833d b642 253e a13f 943d
000002d0: 9e20 303e c38c 523e c775 0dbd c5ce 213d
000002e0: 6838 0b3c 6bc5 02be 69c7 213e bab2 623d
000002f0: 2838 223e 6748 393e 561a fd3c 5bd0 263d
00000300: c627 0e3e 07c5 dd3d 45b6 943d 2f70 1f3e
00000310: f19b ec3d 55e8 d0bd 2b50 b63d 56d8 f1bd
