projects/proj4/models/simple_latent_model.pt (torch_old, 297392 bytes, 21 tensors)

encoder.lstm.weight_ih_l0 f4 [200, 50]
0.025058107 0.10513937 -0.087020904 0.11473403 -0.11363854 0.1533576 0.01761878 0.002897459
0.07202166 -0.01857542 -0.11568204 -0.0868631 0.08878956 -0.049154058 0.1338403 -0.12248596
-0.11806767 0.08353154 -0.09504308 0.04145858 -0.035991423 0.021180462 -0.12086391 0.07213158
0.0321355 -0.09255823 -0.07571621 0.11245079 -0.023516985 -0.038216345 -0.0106005315 0.11243909
0.12769422 -0.047646713 0.12846988 0.07357483 -0.029846596 0.004375067 -0.012177573 0.000315676
-0.10544177 -0.1427972 -0.07642776 0.087360196 -0.081695594 0.1452025 0.02109833 -0.080467045
-0.07611984 0.043061495 0.009782706 -0.10835301 -0.11658917 0.11125162 0.07089312 -0.07881962
0.0023455766 0.08151694 0.008081409 -0.028908025 0.023045719 0.00032870684 0.069931954 0.13285787
-0.10359641 0.053678315 -0.06260283 0.10865282 -0.100705504 -0.036259968 0.013453868 0.109186105
-0.1286195 -0.06831098 -0.09292428 0.13994505 -0.13645378 -0.07831984 0.0034718893 -0.06900406
0.049881857 -0.12035632 0.0030355293 0.115774855 -0.057330027 -0.13113877 0.06620792 0.04343158
-0.08285532 0.17176016 -0.03643348 0.08939695 0.115183145 0.076258875 -0.06171526 0.08360578
-0.03639582 -0.045809004 0.102121435 -0.11231492 0.10255531 -0.050660964 0.09105164 -0.002928837
-0.08866332 -0.121633016 -0.100512296 0.053936433 0.0059962943 0.043245696 0.014519604 0.04254047
-0.08453607 -0.142763 -0.005161479 -0.031933323 -0.036837142 -0.037332997 0.04167351 -0.12438458
-0.10269135 -0.052394025 0.024911884 -0.047162913 -0.023389678 -0.03955856 -0.041271392 0.111882806
0.07418675 0.07142907 0.022690967 0.06529818 -0.055838548 -0.014130635 0.06574844 -0.055863045
0.020068021 -0.1335808 -0.11015021 0.12482014 0.092527755 -0.06200196 0.0018512214 -0.05148952
-0.12483408 -0.09913971 -0.13076681 -0.07486232 -0.010590347 -0.13986261 0.0655807 -0.009401377
-0.13076939 0.020886349 -0.08021646 -0.14886114 -0.070304245 -0.13024628 -0.018182438 0.016416548
0.08417931 0.095508665 0.0428211 -0.055706244 0.023993226 -0.123019576 0.10240228 0.054350026
-0.11432489 -0.11746241 0.09147927 -0.10466704 -0.0048506586 0.016310396 0.117505394 0.03268232
-0.12882082 0.13676909 -0.0846831 0.11133644 0.016486384 -0.13243315 0.004631809 -0.098951936
0.12154999 -0.098238446 -0.051404282 -0.11574049 0.12619029 -0.09321017 0.11061775 -0.14582121
0.1193316 0.10871064 -0.0448589 0.023187062 0.11924569 -0.06318973 -0.058408294 0.09198556
0.1241962 -0.049719628 -0.07440729 -0.014050459 -0.13504775 0.11686111 0.06405193 0.072402924
0.012293723 -0.044712532 -0.11906375 -0.10699108 0.035620734 -0.035401274 -0.10267654 -0.14827564
0.032510687 0.12407525 -0.11602746 0.07733773 -0.00050746475 0.09206004 -0.06786029 0.002971357
-0.062676 -0.12992784 -0.03076596 -0.11942608 -0.0344323 0.021598795 -0.049171027 0.07321412
-0.060317438 -0.03214575 0.09581232 -0.12551352 -0.14577653 0.00807319 -0.07690077 -0.09820249
0.053479373 0.10176299 -0.10178506 -0.11631619 0.08591833 -0.11682386 -0.06728161 -0.0028074258
0.05818133 -0.042805165 0.077121735 0.12867235 0.12440221 0.037404466 0.1367125 -0.13713038
00000000: a946 cd3c 4f53 d73d 0438 b2bd adf9 ea3d
00000010: 53bb e8bd c609 1d3e 4255 903c 4ce3 3d3b
00000020: 1880 933d 7b2b 98bc b5ea ecbd 48e5 b1bd
00000030: 4dd7 b53d c455 49bd 6e0d 093e ebd9 fabd
00000040: 76cd f1bd 9612 ab3d f2a5 c2bd 79d0 293d
00000050: be6b 13bd a682 ad3c 7f87 f7bd b9b9 933d
00000060: 84a0 033d 2b8f bdbd 1a11 9bbd 9a4c e63d
00000070: b1a6 c0bc be88 1cbd daad 2dbc 7746 e63d
00000080: 46c2 023e 3329 43bd 9c8d 033e 67ae 963d
00000090: d980 f4bc b95c 8f3b 7184 47bc 5181 a539
000000a0: dbf1 d7bd 6e39 12be 2886 9cbd e7e9 b23d
000000b0: 0550 a7bd f7af 143e 68d6 ac3c e8cb a4bd
000000c0: b8e4 9bbd 4061 303d a547 203c 2fe8 ddbd
000000d0: 4ec6 eebd e4d7 e33d 6930 913d 2e6c a1bd
000000e0: 3fb8 193b 5af2 a63d e367 043c 86d0 ecbc
000000f0: 60ca bc3c 4956 ac39 7c38 8f3d e50b 083e
00000100: 5b2a d4bd cbdd 5b3d ea35 80bd 5f85 de3d
00000110: b03e cebd 5585 14bd 9d6d 5c3c f79c df3d
00000120: d5b4 03be a1e6 8bbd 164f bebd c14d 0f3e
00000130: 8aba 0bbe 2766 a0bd a388 633b 0052 8dbd
00000140: eb50 4c3d 607d f6bd bbef 463b 5e1b ed3d
00000150: e4d2 6abd 3e49 06be 0598 873d 50e5 313d
00000160: 0db0 a9bd e5e1 2f3e 463b 15bd c015 b73d
00000170: 24e5 eb3d 9d2d 9c3d 24c9 7cbd 8239 ab3d
00000180: c913 15bd 39a2 3bbd 0b25 d13d 5d05 e6bd
00000190: 8508 d23d df81 4fbd 4879 ba3d bbf1 3fbb
000001a0: 1d95 b5bd bb1a f9bd 64d9 cdbd 73ec 5c3d
000001b0: 907c c43b 6622 313d a2e3 6d3c ea3e 2e3d
000001c0: 3f21 adbd 7730 12be a021 a9bb 84cc 02bd
000001d0: 8be2 16bd 7cea 18bd d8b1 2a3d 58bd febd
000001e0: d84f d2bd 1e9b 56bd 0214 cc3c e62d 41bd
000001f0: b69b bfbc 2808 22bd 310c 29bd d022 e53d
00000200: 39ef 973d 6749 923d 68e2 b93c 0dbb 853d
00000210: f6b6 64bd 2e84 67bc 1ea7 863d a6d0 64bd
00000220: b165 a43c 68c9 08be 6f96 e1bd b4a1 ff3d
00000230: 317f bd3d c4f5 7dbd afa4 f23a ade6 52bd
00000240: 03a9 ffbd c309 cbbd bce7 05be 6b51 99bd
00000250: 2383 2dbc 2538 0fbe 2d4f 863d 3c08 1abc
00000260: 69e8 05be d919 ab3c 8748 a4bd 0e6f 18be
00000270: acfb 8fbd 485f 05be 56f3 94bc ff7b 863c
00000280: 3466 ac3d 0c9a c33d 2e65 2f3d 3b2c 64bd
00000290: 718d c43c b0f1 fbbd 49b8 d13d 229e 5e3d
000002a0: 2b23 eabd 2290 f0bd 7c59 bb3d ac5b d6bd
000002b0: 46f2 9ebb 619d 853c aba6 f03d e5dd 053d
000002c0: 9be9 03be 320d 0c3e 556e adbd 5c04 e43d
000002d0: 740e 873c 8e9c 07be 6ec6 973b 50a7 cabd
000002e0: 33ef f83d 3d31 c9bd 4c8d 52bd 5a09 edbd
000002f0: 0738 013e f9e4 bebd 8f8b e23d 2852 15be
00000300: 2064 f43d afa3 de3d f7bd 37bd cbf2 bd3c
00000310: 1637 f43d 9e69 81bd 893d 6fbd ed62 bc3d
00000320: 945a fe3d cfa6 4bbd d962 98bd e533 66bc
00000330: f549 0abe e154 ef3d a92d 833d fc47 943d
00000340: 9d6b 493c 7d24 37bd b2d7 f3bd 241e dbbd
00000350: 0ce7 113d ed00 11bd 1448 d2bd 92d5 17be
00000360: ed29 053d 2a1b fe3d ce9f edbd 3e63 9e3d
00000370: 6207 05ba f989 bc3d 56fa 8abd 19bb 423b
00000380: 465c 80bd ce0b 05be e508 fcbc a995 f4bd
00000390: e208 0dbd f5ef b03c 8f67 49bd 49f1 953d
000003a0: 6b0f 77bd 43ab 03bd 4039 c43d 9e86 00be
000003b0: 7146 15be 6a45 043c 277e 9dbd 631e c9bd
000003c0: 300d 5b3d 1d69 d03d af74 d0bd 2f37 eebd
000003d0: f3f5 af3d 5941 efbd f1ca 89bd cafc 37bb
000003e0: 8c4f 6e3d 7854 2fbd 00f2 9d3d afc2 033e
000003f0: 96c6 fe3d 6d35 193d 5dfe 0b3e e86b 0cbe

encoder.lstm.weight_hh_l0 f4 [200, 50]
-0.1087822 -0.11514949 -0.021720914 0.08484764 0.13830632 -0.050113156 -0.04954532 0.06265983
-0.1221823 -0.08446108 0.013897542 -0.07403986 0.06516374 0.06516579 -0.018970506 -0.0036101376
0.08725743 0.09818954 -0.041191973 0.14592786 0.015176002 -0.06078328 0.107700884 -0.034631874
0.057848394 0.009413158 0.04671658 0.07695323 0.07282351 -0.014297211 -0.04588938 0.054795776
0.09250884 0.13879097 0.11142466 0.088530675 0.0718461 0.15878013 0.044061948 0.053668804
0.014948513 0.0050061257 -0.11599488 -0.15527104 -0.04110285 -0.10084769 0.03078002 0.0062307217
-0.08863751 0.09284132 -0.076731145 -0.056823302 -0.030683106 0.0030225748 0.08470848 0.012727988
0.0817817 -0.14543387 -0.034893762 -0.10719731 -0.052849993 -0.01722678 -0.02871437 0.059868064
0.003240733 -0.08969329 0.02155918 0.11280228 -0.0010382422 -0.05055003 -0.048717644 -0.051053982
-0.123286456 0.04935825 0.066930525 -0.01972254 0.051902123 -0.0057456004 -0.12678592 0.06935033
0.1278445 -0.042923987 0.114114575 0.10603866 -0.12065677 0.10694131 -0.0019491959 -0.078017175
-0.10924787 -0.11111092 0.019850587 -0.02133304 0.12331635 -0.12512998 -0.118977994 -0.02367541
-0.047105875 -0.15139715 0.06485557 0.14137667 0.071636066 0.13572805 0.005250965 -0.012562885
-0.049178936 -0.043322906 0.015699508 0.055269822 -0.073142625 -0.006566345 -0.0513036 -0.04990905
-0.008659655 0.0034493734 0.02003452 0.09132294 -0.09001958 -0.0010504718 -0.0036291997 -0.109018445
0.068005316 0.0955932 -0.099915214 -0.016820857 -0.112642616 -0.04721748 0.030643977 -0.07017388
0.05135414 -0.057909533 -0.015576983 0.11231175 -0.09127076 -0.14500985 -0.036585115 -0.12860924
-0.08670786 0.08952148 0.059906475 0.036934268 0.13294564 -0.10993249 -0.001694618 -0.05992054
-0.005094762 -0.0349896 -0.002651542 0.04615971 0.11195845 -0.049209077 -0.077058 -0.077667415
0.12813501 0.09552426 0.08394298 0.091057315 -0.11871472 -0.13904564 0.08181742 -0.06966904
-0.046130627 0.011102483 0.08806379 0.09158851 -0.05577636 0.12271865 -0.14518447 -0.12725699
0.14542168 0.12773466 -0.122008935 -0.018836139 0.097385116 -0.107195735 0.11726218 -0.02593054
0.0046440745 -0.08162965 -0.00038881187 -0.12873805 0.099254556 -0.12941834 -0.0986154 0.062369514
-0.09979923 -0.012719558 -0.11260087 -0.044834074 -0.068004474 0.03963313 0.14832367 -0.06517026
0.034909043 0.108327255 0.031691633 -0.12031532 -0.14639616 -0.078561805 0.039092302 0.004285308
-0.045215998 -0.061525118 0.10081652 0.022564704 -0.04736722 -0.030366132 0.12857302 -0.0057044807
0.08232444 -0.027744275 -0.093283944 -0.14784099 0.09698517 -0.10915458 -0.09063541 -0.08804697
0.067229725 -0.1060236 -0.09780776 -0.043910753 0.13680542 0.13312034 -0.10493381 0.118188605
-0.113674715 -0.065946884 -0.11703694 -0.08563503 0.070138305 0.017238565 -0.0041135806 0.06942407
0.020796819 -0.07062575 -0.086496614 -0.058135428 0.030334454 -0.016833909 -0.07201455 0.05378689
0.12960048 0.1268718 0.0309191 -0.05587434 0.0792595 -0.059669152 -0.09409311 0.026889004
-0.04133056 0.05383315 0.029730314 0.08487065 -0.15883419 -0.11076176 -0.04367478 -0.13618103
00000000: 34c9 debd 7fd3 ebbd 0ff0 b1bc 99c4 ad3d
00000010: 2ca0 0d3e 7443 4dbd 09f0 4abd cc53 803d
00000020: b73a fabd eef9 acbd 84b2 633c 36a2 97bd
00000030: 9174 853d a475 853d 0968 9bbc 0f98 6cbb
00000040: 06b4 b23d 9917 c93d eab8 28bd 1d6e 153e
00000050: c4a4 783c e3f7 78bd 4892 dc3d 27da 0dbd
00000060: 70f2 6c3d a539 1a3c e259 3f3d a899 9d3d
00000070: 7e24 953d d93e 6abc 81f6 3bbd 8971 603d
00000080: 4675 bd3d 381f 0e3e 9d32 e43d 924f b53d
00000090: 0c24 933d 4297 223e 4d7a 343d d2d3 5b3d
000000a0: 9cea 743c 6d0a a43b b98e edbd 5fff 1ebe
000000b0: 765b 28bd 3c89 cebd 6126 fc3c 152b cc3b
000000c0: 9587 b5bd 9723 be3d 3825 9dbd 8dbf 68bd
000000d0: 235b fbbc 6416 463b a47b ad3d 0d89 503c
000000e0: 2a7d a73d 9eec 14be c3ec 0ebd 438a dbbd
000000f0: 3c79 58bd 2d1f 8dbc 663a ebbc 3738 753d
00000100: 7a62 543b 1eb1 b7bd e19c b03c e204 e73d
00000110: a115 88ba 8c0d 4fbd 278c 47bd fb1d 51bd
00000120: 9c7d fcbd e02b 4a3d df12 893d 2a91 a1bc
00000130: 5297 543d 9745 bcbb 2bd4 01be 8c07 8e3d
00000140: abe9 023e 10d1 2fbd e7b4 e93d cc2a d93d
00000150: e61a f7bd 0c04 db3d 297c ffba 78c7 9fbd
00000160: 59bd dfbd 1f8e e3bd b39d a23c a1c2 aebc
00000170: 488d fc3d 1322 00be bcaa f3bd eff2 c1bc
00000180: 17f2 40bd db07 1bbe ffd2 843d 0cc5 103e
00000190: eeb5 923d 4bfc 0a3e 4910 ac3b 8fd4 4dbc
000001a0: da6f 49bd 5c73 31bd 419c 803c 9c62 623d
000001b0: cdcb 95bd 7f2a d7bb b923 52bd 6f6d 4cbd
000001c0: 3ae1 0dbc e20e 623b 6f1f a43c 8607 bb3d
000001d0: 305c b8bd fcaf 89ba ded7 6dbb 1045 dfbd
000001e0: 5f46 8b3d 5ec6 c33d 59a0 ccbd e5cb 89bc
000001f0: 2cb1 e6bd 1e67 41bd 1409 fb3c 53b7 8fbd
00000200: b858 523d 8c32 6dbd 9a36 7fbc b403 e63d
00000210: 2aec babd 767d 14be 46da 15bd 24b2 03be
00000220: e493 b1bd 0a57 b73d 7e60 753d 6348 173d
00000230: e722 083e 4924 e1bd f21d deba 3d6f 75bd
00000240: f6f1 a6bb 4151 0fbd 7ec5 2dbb f711 3d3d
00000250: 794a e53d 758f 49bd 96d0 9dbd 1810 9fbd
00000260: d335 033e 39a2 c33d 4cea ab3d 427c ba3d
00000270: b420 f3bd fb61 0ebe e48f a73d a4ae 8ebd
00000280: 78f3 3cbd 30e7 353c ca5a b43d c292 bb3d
00000290: c175 64bd ea53 fb3d 3dab 14be a84f 02be
000002a0: 6ce9 143e e0cc 023e d2df f9bd 3f4e 9abc
000002b0: d971 c73d 7089 dbbd 2727 f03d 496c d4bc
000002c0: 522d 983b 722d a7bd 72d9 cbb9 e8d3 03be
000002d0: f945 cb3d 3e86 04be dff6 c9bd 2d77 7f3d
000002e0: 8a63 ccbd b165 50bc 499b e6bd efa3 37bd
000002f0: ee45 8bbd 5956 223d 29e2 173e fc77 85bd
00000300: c9fc 0e3d aeda dd3d 16cf 013d e167 f6bd
00000310: e0e8 15be 03e5 a0bd 401f 203d c56b 8c3b
00000320: 6934 39bd c301 7cbd e478 ce3d 9dd9 b83c
00000330: 2104 42bd 65c2 f8bc a5a8 033e a7ec babb
00000340: b799 a83d f647 e3bc a70b bfbd a163 17be
00000350: 29a0 c63d 708c dfbd 0f9f b9bd f851 b4bd
00000360: bdaf 893d e722 d9bd 6f4f c8bd c3db 33bd
00000370: b816 0c3e b350 083e 8ae7 d6bd de0c f23d
00000380: 4ace e8bd 290f 87bd 10b1 efbd 6b61 afbd
00000390: aca4 8f3d e437 8d3c 37cb 86bb 352e 8e3d
000003a0: 175e aa3c 3ca4 90bd 2325 b1bd 6a1f 6ebd
000003b0: f67f f83c 44e7 89bc 5d7c 93bd a44f 5c3d
000003c0: fdb5 043e aeea 013e 0d4a fd3c 7edc 64bd
000003d0: ce52 a23d a467 74bd e3b3 c0bd 5446 dc3c
000003e0: 3c4a 29bd 2680 5c3d fd8c f33c aad0 ad3d
000003f0: 6ea5 22be 10d7 e2bd 53e4 32bd 0a73 0bbe

encoder.lstm.bias_ih_l0 f4 [200]
-0.10684759 -0.008931613 0.1321238 0.08941469 0.09462513 0.088597655 0.05132931 -0.06554071
0.012715808 -0.10567952 -0.04830656 0.00081126613 0.019400897 -0.08793657 -0.05234846 -0.08142534
-0.013335648 0.10257026 0.00927075 0.023661291 0.05708805 -0.12945183 0.076458685 0.09150112
-0.15510182 0.044740014 0.011113673 0.027798375 -0.106341414 -0.06980954 0.07394825 -0.0662313
-0.07954102 0.14139326 0.09558018 0.04073291 0.05819824 0.08274946 0.10458833 -0.019287119
0.096560255 0.14154673 -0.11175582 -0.11376398 0.106826216 0.01023042 0.06799875 0.02925977
0.11742157 -0.090248495 -0.12900937 0.07547823 -0.059556264 -0.08997169 -0.11885118 0.105757095
-0.107428536 -0.13375218 0.0069266614 -0.053245082 0.06228872 -0.1132255 0.12473824 -0.14337273
-0.06714035 0.118667826 0.118010834 -0.1167821 -0.07846525 -0.11155676 -0.027890246 -0.008258649
-0.008458643 -0.1095597 0.070378825 0.030909598 0.06383058 0.15523908 -0.07681169 -0.10911522
-0.07246906 -0.050342817 -0.07454572 -0.09301415 -0.022026634 -0.03840227 0.091250926 0.022731142
-0.10512588 -0.11099066 0.049158372 -0.068717346 0.0052076173 -0.010240743 -0.10118743 0.01246375
0.1180047 -0.06881069 0.10762364 0.034169815 0.09187486 -0.12658906 -0.036392376 0.13937798
-0.12928492 -0.03578653 0.12627544 0.022366073 -0.07513351 0.12682481 -0.09467944 -0.050975975
0.047735725 -0.024122057 0.060467977 -0.004082674 -0.04054549 0.108674325 0.045767736 -0.11671942
0.046912614 0.019888569 -0.024432361 0.0208806 0.011113796 0.083430044 0.03661299 0.075023495
0.067797326 -0.0016150731 0.1259868 -0.0014312064 -0.13572887 0.019702481 -0.060912468 0.13692951
0.016046818 0.007518624 -0.082155384 0.03921571 -0.018058367 0.106497675 0.042041507 -0.058779594
-0.10225217 0.08716982 -0.1295705 -0.09333888 0.08123903 -0.05215325 0.08168694 -0.013838351
-0.10119326 0.07968462 -0.007873073 -0.020550663 -0.07486767 0.024586229 -0.05339463 0.014887023
-0.13854405 0.13581151 -0.15030344 -0.04215354 -0.007144561 0.06574494 0.0945696 0.0845146
-0.11090195 0.113626234 -0.0047669397 0.13826267 0.005188068 -0.1444569 -0.018007034 0.011743416
-0.033535622 0.02728941 0.09638945 -0.14386746 -0.041023444 0.12565568 0.06881004 0.043480795
-0.11424943 0.13349958 0.021610461 -0.07316339 -0.044372488 -0.107876025 0.11282505 0.09726286
0.044245556 0.078109585 0.12413942 0.13746907 -0.04831258 0.061717533 0.11132965 0.044023287
00000000: e9d2 dabd e655 12bc 764b 073e 0d1f b73d
00000010: d2ca c13d b072 b53d af3e 523d 353a 86bd
00000020: f755 503c 816e d8bd 19dd 45bd 26ab 543a
00000030: a1ee 9e3c 1718 b4bd 576b 56bd 54c2 a6bd
00000040: c37d 5abc 5b10 d23d 58e4 173c 53d5 c13c
00000050: 29d5 693d 058f 04be 5f96 9c3d f064 bb3d
00000060: 03d3 1ebe 4e41 373d 2016 363c 6bb9 e33c
00000070: 87c9 d9bd 4ef8 8ebd 2e72 973d 47a4 87bd
00000080: 67e6 a2bd 65c9 103e 8bbf c33d 8dd7 263d
00000090: 4761 6e3d 8d78 a93d 6832 d63d 0500 9ebc
000000a0: 62c1 c53d a0f1 103e 3ce0 e4bd 17fd e8bd
000000b0: b4c7 da3d 7e9d 273c ee42 8b3d 2fb2 ef3c
000000c0: b87a f03d 34d4 b8bd 081b 04be 5594 9a3d
000000d0: 45f1 73bd 1443 b8bd 3f68 f3bd 2d97 d83d
000000e0: 7e03 dcbd 55f6 08be 0cf9 e23b 8417 5abd
000000f0: 7522 7f3d c5e2 e7bd c376 ff3d 4dd0 12be
00000100: e180 89bd 1e08 f33d aaaf f13d 742b efbd
00000110: 64b2 a0bd df77 e4bd 167a e4bc 494f 07bc
00000120: 1f96 0abc d660 e0bd c622 903d 2036 fd3c
00000130: 9bb9 823d fef6 1e3e 734f 9dbd cd77 dfbd
00000140: a96a 94bd 4534 4ebd 6dab 98bd 347e bebd
00000150: 3371 b4bc b34b 1dbd c4e1 ba3d a936 ba3c
00000160: 3d4c d7bd 124f e3bd 4a5a 493d aebb 8cbd
00000170: a9a4 aa3b cac8 27bc 5b3b cfbd c234 4c3c
00000180: 73ac f13d 9eec 8cbd c869 dc3d a6f5 0b3d
00000190: e328 bc3d 90a0 01be 2c10 15bd 1ab9 0e3e
000001a0: 4463 04be e594 12bd 594e 013e 0e39 b73c
000001b0: 99df 99bd 5dde 013e 4be7 c1bd 2fcc 50bd
000001c0: 8986 433d 9f9b c5bc 45ad 773d f4c7 85bb
000001d0: 0713 26bd a590 de3d f376 3b3d 970a efbd
000001e0: 7127 403d 5aed a23c 6026 c8bc cb0d ab3c
000001f0: a416 363c 5fdd aa3d 81f7 153d eba5 993d
00000200: 53d9 8a3d dcb0 d3ba af02 013e 5197 bbba
00000210: 82fc 0abe 1967 a13c 5a7f 79bd 4037 0c3e
00000220: 9e74 833c ca5e f63b 1541 a8bd a7a0 203d
00000230: 24ef 93bc 741b da3d b733 2c3d dfc2 70bd
00000240: 9669 d1bd 1786 b23d 21ae 04be 7428 bfbd
00000250: a660 a63d a59e 55bd 7b4b a73d 40ba 62bc
00000260: 693e cfbd b131 a33d 10fe 00bc dd59 a8bc
00000270: 3954 99bd 0f69 c93c 54b4 5abd b3e8 733c
00000280: 7ede 0dbe 2c12 0b3e 25e9 19be 31a9 2cbd
00000290: ec1c eabb 48a5 863d b5ad c13d fe15 ad3d
000002a0: 9020 e3bd dfb4 e83d fd33 9cbb bb94 0d3e
000002b0: ab00 aa3b 82ec 13be 7d83 93bc 7567 403c
000002c0: a65c 09bd 0a8e df3c d567 c53d fe51 13be
000002d0: 3308 28bd e2ab 003e 47ec 8c3d eb18 323d
000002e0: 9bfb e9bd 1db4 083e 6c08 b13c b0d6 95bd
000002f0: edbf 35bd 1bee dcbd d210 e73d c031 c73d
00000300: d43a 353d ebf7 9f3d cf3c fe3d b1c4 0c3e
00000310: 69e3 45bd 86cb 7c3d cd00 e43d c351 343d

encoder.lstm.bias_hh_l0 f4 [200]
0.109613694 -0.054129332 -0.10796746 0.12002591 -0.04255674 0.14516625 -0.05550702 -0.085542075
0.05699327 -0.036875404 0.07103719 -0.10436903 0.07287806 -0.052201338 0.059352268 0.117708005
0.10538746 -0.13313168 0.054906506 0.01054968 0.0803237 -0.06029466 0.10649789 -0.07500823
-0.1251838 0.1297825 -0.03408448 0.07647611 -0.11733344 -0.02134317 -0.102605015 0.12771164
-0.0503129 0.023515625 0.13101338 0.09881468 -0.012168159 0.078413524 -0.009373676 0.01111946
-0.032953873 -0.06503966 -0.10502797 0.027826102 0.017587846 -0.09200238 0.031415306 0.07452165
-0.062342558 0.058796156 0.044041403 -0.059481245 0.03447109 0.014260583 0.14037542 -0.10124261
-0.12427577 -0.09206323 0.09627391 -0.07738564 0.08581106 0.049669072 -0.029301094 0.019788023
0.092503674 0.048242096 -0.111147694 -0.061144184 -0.10455323 -0.09637227 -0.0963994 0.033717107
-0.075421564 0.0829049 -0.08984227 -0.111585885 -0.15019748 -0.08415228 0.03379249 -0.11071936
-0.14304405 -0.10590385 -0.12462284 0.08087265 0.13163503 0.0044885296 0.08286674 -0.11612578
-0.06424051 -0.004003766 -0.023429362 -0.13868684 0.13491082 0.065072775 0.08143806 -0.07110018
-0.1387829 0.051707264 0.09199053 -0.0650624 0.019198557 0.0065503656 -0.025901448 0.032451805
-0.06091887 -0.11062503 -0.082559824 -0.09626061 0.03706671 -0.11736214 0.091813974 0.08828987
-0.07274179 -0.0646841 0.11678354 0.049415167 -0.13412489 0.023731582 0.02972983 -0.059219554
0.016147388 0.018660847 -0.016079377 0.05505221 0.038695715 0.054938566 0.08884968 0.090056606
0.013327544 -0.091401026 -0.10578099 -0.14572115 0.03844629 -0.116799906 0.13842385 0.07464434
-0.094877295 -0.008952445 -0.08463888 -0.06881279 0.13407098 -0.10979644 -0.12439997 0.13514467
-0.11136602 -0.008153543 -0.034229632 0.09313756 -0.007327628 0.115696095 -0.13718651 -0.043430608
0.05167426 0.10451301 -0.12487424 0.0836403 0.09489514 -0.10826859 -0.121432774 -0.115349434
0.109260514 -0.069048174 0.06821251 0.08259908 0.045066964 0.06016144 -0.058916125 0.05392758
0.114663005 0.13142516 -0.1140627 0.006486818 -0.12403401 -0.09654961 -0.057584487 -0.07544259
-0.14371195 -0.027992574 0.07512977 0.09786245 -0.13388944 0.14957179 -0.051645126 0.13138111
0.010260247 -0.10882653 0.09917943 -0.059738215 -0.083030455 -0.12607229 -0.1242137 -0.027827313
-0.14224625 -0.027107308 -0.03822282 -0.037896328 -0.027501637 0.057442658 0.0019471248 0.12941937
00000000: 257d e03d b8b6 5dbd 0b1e ddbd 25d0 f53d
00000010: fa4f 2ebd 76a6 143e 545b 63bd af30 afbd
00000020: c671 693d aa0a 17bd f27b 913d 6ebf d5bd
00000030: 1841 953d 12d1 55bd 5d1b 733d e510 f13d
00000040: 61d5 d73d ac53 08be a5e5 603d 91d8 2c3c
00000050: c180 a43d 89f7 76bd 911b da3d ea9d 99bd
00000060: 2f30 00be b4e5 043e 2b9c 0bbd 829f 9c3d
00000070: 844c f0bd dfd7 aebc 9422 d2bd d7c6 023e
00000080: e614 4ebd d7a3 c03c 5f28 063e 5a5f ca3d
00000090: f55c 47bc 4597 a03d 0c94 19bc 652e 363c
000000a0: a4fa 06bd 8333 85bd e818 d7bd 91f3 e33c
000000b0: 6314 903c be6b bcbd 56ad 003d cf9e 983d
000000c0: e95a 7fbd 3dd4 703d c264 343d 9ba2 73bd
000000d0: 8f31 0d3d 38a5 693c 93be 0f3e 4958 cfbd
000000e0: 4b84 febd a68b bcbd 412b c53d 5d7c 9ebd
000000f0: b6bd af3d cc71 4b3d d908 f0bc 7e1a a23c
00000100: 9172 bd3d 8199 453d 67a1 e3bd 5372 7abd
00000110: 0120 d6bd d35e c5bd 0c6d c5bd f31a 0a3d
00000120: 9f76 9abd 0bca a93d 39ff b7bd 2487 e4bd
00000130: 5ecd 19be 0858 acbd fe69 0a3d d5c0 e2bd
00000140: 247a 12be 1ee4 d8bd 423a ffbd 8fa0 a53d
00000150: 55cb 063e 8414 933b 0ab6 a93d 5ad3 edbd
00000160: 8790 83bd 0632 83bb efee bfbc ec03 0ebe
00000170: 1026 0a3e e044 853d ffc8 a63d f99c 91bd
00000180: 1b1d 0ebe ffca 533d 8865 bc3d 703f 85bd
00000190: 4b46 9d3c 73a4 d63b 462f d4bc 2fec 043d
000001a0: 1186 79bd 608f e2bd 2015 a9bd 4824 c5bd
000001b0: 43d3 173d 905b f0bd f708 bc3d 52d1 b43d
000001c0: a6f9 94bd 1979 84bd 352c ef3d 8f67 4a3d
000001d0: 0958 09be bc68 c23c f98b f33c 3490 72bd
000001e0: 8747 843c a2de 983c e6b8 83bc 6d7e 613d
000001f0: 667f 1e3d 4307 613d d2f6 b53d 996f b83d
00000200: c55b 5a3c 7630 bbbd b4a3 d8bd ed37 15be
00000210: db79 1d3d ca34 efbd fbbe 0d3e 22df 983d
00000220: 074f c2bd 47ad 12bc 2657 adbd b8ed 8cbd
00000230: e749 093e f5dc e0bd 69c5 febd 5d63 0a3e
00000240: de13 e4bd 7096 05bc 5f34 0cbd e8be be3d
00000250: 991c f0bb 13f2 ec3d 9f7a 0cbe 4be4 31bd
00000260: 64a8 533d eb0a d63d 11be ffbd 9b4b ab3d
00000270: 6258 c23d ecbb ddbd bfb1 f8bd 533c ecbd
00000280: fac3 df3d 2169 8dbd 00b3 8b3d b529 a93d
00000290: 2398 383d d86b 763d 0952 71bd 2be3 5c3d
000002a0: 70d4 ea3d 5194 063e b499 e9bd 608f d43b
000002b0: 8b05 febd cdbb c5bd b6dd 6bbd a581 9abd
000002c0: 3a29 13be af50 e5bc a3dd 993d 1c6c c83d
000002d0: 501a 09be 5929 193e d789 53bd c588 063e
000002e0: 981a 283c 72e0 debd 961e cb3d 0fb0 74bd
000002f0: df0b aabd 1819 01be c163 febd 1bf6 e3bc
00000300: 00a9 11be 2510 debc 888f 1cbd 2e39 1bbd
00000310: 1d4b e1bc fe48 6b3d ab36 ff3a 8386 043e

encoder.lstm.weight_ih_l0_reverse f4 [200, 50]
0.046496578 -0.06045745 0.06989044 -0.13721325 0.007116976 -0.0418824 -0.12100103 -0.13950938
-0.006133513 0.18037404 0.13542064 -0.06402489 -0.13792832 -0.049787946 0.11997818 -0.13194428
0.0024197719 0.02465554 -0.11998137 0.058133077 -0.035234045 -0.12201213 -0.006541349 0.16299395
-0.11863636 -0.057360385 -0.14513001 -0.12071303 0.15505715 -0.11136041 -0.023179512 0.12759437
0.061775256 0.033608913 -0.106695674 0.11511493 -0.09276035 0.10033333 -0.12928866 0.120433055
0.1028946 -0.03582278 -0.09284125 -0.07600807 0.01689065 -0.02073995 -0.06911815 0.06978142
-0.12987404 -0.13239525 0.05363259 -0.08536108 0.10557491 -0.08988588 0.04545916 0.0029926298
0.08719076 0.02836982 -0.086649366 0.11605826 0.03372769 -0.071123935 0.08000577 0.001570286
0.12376305 -0.04395994 -0.13869871 -0.14264612 0.11394076 -0.038779404 0.059360206 0.01595578
-0.10808902 -0.08960884 0.041545868 0.038543466 0.043347105 -0.041937925 0.07921169 -0.025965808
0.046917625 -0.15387425 0.13766153 0.047755893 0.06997959 0.1261423 0.008575314 0.14160757
0.021006107 -0.07449133 -0.07687651 -0.0068303496 0.096784785 0.13531718 0.12388988 0.057559144
0.12992659 -0.077329785 0.049529783 0.046666283 0.02891452 0.05068505 0.06068729 -0.024067894
-0.07354695 0.050891783 -0.036243297 -0.08878156 -0.14182255 -0.14784728 -0.10567992 -0.0046845763
-0.05975951 -0.09998811 -0.03811294 -0.047400612 0.022845378 0.023786664 0.0134717645 0.09740613
-0.16727552 0.08596799 0.11235704 -0.037513375 -0.0034095584 -0.012172566 0.13046382 0.06203903
-0.003703442 -0.10762171 0.010528342 0.13803373 -0.0668584 -0.104806505 0.021576881 -0.13664196
0.07710289 -0.04957024 -0.11843947 0.047256876 -0.09312502 0.054955307 0.03375806 -0.08737665
0.048249643 -0.14996411 0.13093616 -0.10521624 0.0421423 0.12944233 -0.115767926 0.10518955
0.05104915 0.07687373 -0.096866444 0.111181445 -0.12314178 0.013955226 -0.112312555 0.041740853
0.10225964 -0.041838698 -0.1003155 -0.08003243 0.022405596 -0.07527299 0.11007753 0.09564102
-0.03559288 0.07114049 0.07113058 -0.044023808 0.15241095 -0.07558886 0.13419311 0.044442628
0.043905176 0.10003914 -0.10639435 0.123135604 -0.036464933 -0.03491749 0.008472391 -0.021006284
-0.021184368 -0.02781211 0.03158229 -0.10818987 0.030086879 -0.08350277 0.011409791 0.06496313
-0.012384198 -0.014864354 0.09870333 0.13213947 -0.03964774 -0.08181414 -0.13996771 -0.11530001
0.15415457 -0.017417388 0.022610115 -0.12675731 -0.05257846 0.048052095 0.004780232 -0.13198967
0.0029877694 0.06822983 -0.020849282 0.03717996 -0.02457455 0.001531274 -0.04944072 0.03102684
-0.08812702 0.08260777 0.02657546 0.06871981 0.059541624 0.012779958 0.006358196 0.018759798
0.121207975 0.045398246 -0.06506725 0.11868022 -0.023608264 0.13850461 -0.101668574 0.021193381
-0.12870687 -0.07596098 -0.13183172 0.1370074 -0.057599314 -0.0015516941 -0.15486024 0.11570066
-0.019035399 -0.05134077 -0.06660704 0.12819415 -0.01533465 0.1235606 0.093525305 -0.08149586
0.1367208 0.053410243 -0.01132943 0.04663158 -0.109472364 0.10448125 -0.16242996 0.09130909
00000000: 3273 3e3d 3ba2 77bd b822 8f3d a181 0cbe
00000010: 8635 e93b e18c 2bbd 63cf f7bd 8cdb 0ebe
00000020: a3fb c8bb f9b3 383e b5ab 0a3e 7b1f 83bd
00000030: 153d 0dbe 72ee 4bbd 1fb7 f53d 671c 07be
00000040: 0995 1e3b 6afa c93c cbb8 f5bd f31c 6e3d
00000050: 9351 10bd 7fe1 f9bd d058 d6bb e3e7 263e
00000060: 9ff7 f2bd b9f2 6abd f69c 14be 6538 f7bd
00000070: 4dc7 1e3e ed10 e4bd f6e2 bdbc 19a8 023e
00000080: 0d08 7d3d 80a9 093d 4383 dabd 60c1 eb3d
00000090: 23f9 bdbd 907b cd3d 3f64 04be 9ba5 f63d
000000a0: 67ba d23d e8ba 12bd 8e23 bebd 1eaa 9bbd
000000b0: 435e 8a3c d4e6 a9bc d18d 8dbd 90e9 8e3d
000000c0: b3fd 04be 9f92 07be d9ad 5b3d cad1 aebd
000000d0: a937 d83d 1716 b8bd 6233 3a3d ff1f 443b
000000e0: 1291 b23d d367 e83c 3975 b1bd f4af ed3d
000000f0: 0c26 0a3d 6da9 91bd 11da a33d 0ed2 cd3a
00000100: 7b77 fd3d 570f 34bd 0907 0ebe d311 12be
00000110: c659 e93d 27d7 1ebd b023 733d b2b5 823c
00000120: c75d ddbd d784 b7bd 002c 2a3d c1df 1d3d
00000130: bc8c 313d 1ac7 2bbd bd39 a23d 3fb6 d4bc
00000140: b22c 403d 3691 1dbe 25f7 0c3e af9b 433d
00000150: 7651 8f3d 722b 013e 797f 0c3c 9301 113e
00000160: 0015 ac3c e98e 98bd 6f71 9dbd 20d1 dfbb
00000170: 1a37 c63d 9690 0a3e fab9 fd3d 23c3 6b3d
00000180: 7a0b 053e 145f 9ebd bedf 4a3d 2525 3f3d
00000190: 25de ec3c 219b 4f3d 3c93 783d 082a c5bc
000001a0: c99f 96bd e773 503d da73 14bd 1bd3 b5bd
000001b0: ee39 11be 4765 17be b76e d8bd 1381 99bb
000001c0: 63c6 74bd 91c6 ccbd 501c 1cbd 2527 42bd
000001d0: 3b26 bb3c 40dc c23c adb8 5c3c dd7c c73d
000001e0: 464a 2bbe fc0f b03d 731b e63d a0a7 19bd
000001f0: e672 5fbb 716f 47bc 4f98 053e a31c 7e3d
00000200: 72b5 72bb c568 dcbd 117f 2c3c b758 0d3e
00000210: 0fed 88bd cba4 d6bd 00c2 b03c dfeb 0bbe
00000220: 1fe8 9d3d 2a0a 4bbd 6590 f2bd 6d90 413d
00000230: 55b8 bebd d118 613d e445 0a3d 87f2 b2bd
00000240: 6ba1 453d 3190 19be 2114 063e 9d7b d7bd
00000250: 689d 2c3d 888c 043e bc17 edbd 9e6d d73d
00000260: ea18 513d f96f 9d3d ea61 c6bd 19b3 e33d
00000270: c231 fcbd 76a4 643c 2004 e6bd 75f8 2a3d
00000280: 816d d13d 0e5f 2bbd 3672 cdbd 0be8 a3bd
00000290: f18b b73c ba28 9abd 5470 e13d 70df c33d
000002a0: d7c9 11bd 1bb2 913d e9ac 913d 4f52 34bd
000002b0: 9e11 1c3e 55ce 9abd eb69 093e 7909 363d
000002c0: ead5 333d 52e1 cc3d 48e5 d9bd 852e fc3d
000002d0: 415c 15bd a405 0fbd c9cf 0a3c 5f15 acbc
000002e0: d78a adbc 39d6 e3bc 6e5c 013d a792 ddbd
000002f0: c278 f63c 8003 abbd 22f0 3a3c 640b 853d
00000300: 17e7 4abc 9f89 73bc f924 ca3d 924f 073e
00000310: ab65 22bd 2c8e a7bd b253 0fbe 6922 ecbd
00000320: b2da 1d3e e9ae 8ebc d938 b93c abcc 01be
00000330: 835c 57bd 46d2 443d 7ea3 9c3b 4d28 07be
00000340: 74ce 433b 15bc 8b3d 1dcc aabc 044a 183d
00000350: 9150 c9bc 08b5 c83a 5a82 4abd 002c fe3c
00000360: f07b b4bd 432e a93d c7b4 d93c f9bc 8c3d
00000370: ebe1 733d 0763 513c 6a58 d03b 26ae 993c
00000380: e33b f83d 83f3 393d fa41 85bd 9d0e f33d
00000390: 1e66 c1bc 27d4 0d3e 9d37 d0bd be9d ad3c
000003a0: bccb 03be 6e91 9bbd e5fe 06be ab4b 0c3e
000003b0: 42ed 6bbd 3762 cbba af93 1ebe 78f4 ec3d
000003c0: 20f0 9bbc b34a 52bd 4669 88bd 5445 033e
000003d0: 2f3e 7bbc 570d fd3d 328a bf3d 4de7 a6bd
000003e0: 8a00 0c3e b3c4 5a3d 139f 39bc c100 3f3d
000003f0: 0c33 e0bd 44fa d53d 0a54 26be 4300 bb3d

encoder.lstm.weight_hh_l0_reverse f4 [200, 50]
0.109434254 -0.0034333165 0.021639224 0.014631127 0.0488268 -0.0028369874 0.09202555 -0.04201463
-0.017198639 7.3513365e-06 -0.032464817 0.034230303 0.043730002 -0.075974986 -0.1408423 -0.05388744
-0.039840158 0.056303985 -0.09331467 0.015483196 -0.053223364 -0.06646876 0.03666249 -0.098473236
0.07392238 -0.13115071 0.04225012 0.09865481 -0.07705353 0.06083587 -0.0007489122 -0.08865523
0.04922558 0.03284884 -0.13556923 -0.062831685 -0.010233244 0.0020913165 -0.021355342 -0.14592625
-0.060473666 0.14004499 -0.053448334 -0.063780986 0.13619398 0.037524223 0.054974042 0.018977178
0.111501165 0.038755547 -0.020130828 -0.019163277 0.033517085 -0.06037866 -0.0041793315 0.0832253
-0.13844234 -0.092377506 0.0019774078 -0.04853361 -0.015126842 0.039472964 -0.010451815 0.091964826
-0.045539238 -0.059003547 0.019285293 0.013188469 0.06816777 -0.0751289 -0.11076242 -0.120866455
0.107853085 0.14177054 -0.095272884 0.016795184 -0.12557474 -0.1089714 0.10185236 -0.04911821
-0.041329954 0.045141313 -0.02473301 -0.04027734 0.098820545 0.08189414 -0.042031214 -0.12388009
0.09971366 -0.10762076 0.055135153 0.092606604 0.0901317 0.096293844 0.018595496 -0.06491917
0.10422522 -0.08078812 -0.11003479 0.08031333 -0.103102826 -0.087494366 -0.024694191 0.06014347
-0.025482247 0.009668283 0.058268365 -0.08786912 0.08156628 -0.07512995 0.08576202 -0.0004366942
0.06555185 -0.10865001 0.11155741 0.042362843 0.09641041 -0.08015813 -0.10592477 -0.12841827
0.063330546 -0.12100059 -0.012325223 0.0818713 -0.0789159 0.03241294 -0.036312003 -0.04425373
-0.14112175 0.077276 -0.14922194 -0.05376871 -0.11615202 0.059471056 -0.01534357 -0.12995264
0.021575786 0.07718586 -0.033272833 -0.098174386 -0.05256115 0.045737505 -0.040814623 -0.11325991
-0.014783935 -0.116892755 -0.12305576 -0.1125831 0.08332195 0.09649467 -0.096358545 -0.11063478
-0.14813171 -0.1066021 -0.07853914 -0.14089566 0.11459627 0.0017948769 -0.060205113 0.016456606
0.10426229 -0.0672563 -0.01793608 0.11546497 0.0632949 -0.042338982 0.0012452267 0.057195913
-0.019329317 -0.00072853884 -0.08835268 -0.12219262 -0.07784416 -0.14083807 -0.07693646 -0.14493427
0.053270664 0.05418743 -0.12737341 -0.096531965 0.098499484 -0.10847665 0.10983611 -0.00026361377
-0.151349 -0.012870968 0.024216698 0.056496423 0.029750094 -0.08735954 -0.10248901 -0.024633564
0.13641757 0.06613179 0.011610428 0.085522115 0.13012582 0.13226375 -0.1391459 0.04146493
0.023381637 0.033967946 -0.11824959 -0.07082998 -0.08535409 0.027957678 0.0001221511 -0.057223745
0.15194659 -0.044538494 0.12700225 0.13098778 0.0896869 0.034308393 -0.054737534 -0.077147834
-0.040326707 -0.011719357 7.0440234e-05 -0.033302765 0.036243703 0.05998334 0.10692618 0.06947731
0.107402265 -0.06987912 0.12853523 0.019452086 0.007355935 -0.1070941 -0.09972448 0.0816519
0.07791459 0.13799015 -0.07444503 -0.016748747 -0.029367374 -0.05343318 -0.0052962136 0.03677388
-0.0018327768 0.02251143 0.075352445 -0.09804638 -0.124384 -0.049424082 -0.06811444 -0.10622571
-0.014422087 0.008985503 -0.0031627254 0.0010318634 0.07078771 0.07817531 -0.06749474 -0.0018209668
00000000: 111f e03d 7e01 61bb be44 b13c 65b7 6f3c
00000010: 9cfe 473d c0ec 39bb e477 bc3d 8817 2cbd
00000020: 29e4 8cbc 80ab f636 d4f9 04bd 1335 0c3d
00000030: 3b1e 333d c698 9bbd f738 10be 14b9 5cbd
00000040: 6f2f 23bd 029f 663d c31b bfbd 3bad 7d3c
00000050: be00 5abd c620 88bd 682b 163d 56ac c9bd
00000060: 9e64 973d 5f4c 06be 760e 2d3d 880b ca3d
00000070: 3ece 9dbd 092f 793d a652 44ba e090 b5bd
00000080: c3a0 493d 818c 063d a9d2 0abe e6ad 80bd
00000090: 56a9 27bc 780e 093b 66f1 aebc b16d 15be
000000a0: 3cb3 77bd f467 0f3e a4ec 5abd 9b9f 82bd
000000b0: 6f76 0b3e 00b3 193d 762c 613d 0776 9b3c
000000c0: b95a e43d 23be 1e3d 68e9 a4bc 4efc 9cbc
000000d0: 3649 093d 9d4f 77bd c6f2 88bb 0772 aa3d
000000e0: d4c3 0dbe 6b30 bdbd 6697 013b 2ecb 46bd
000000f0: 93d6 77bc 67ae 213d 173e 2bbc 0e58 bc3d
00000100: 5a87 3abd b4ad 71bd 31fc 9d3c 7314 583c
00000110: 8b9b 8b3d 2edd 99bd 68d7 e2bd d588 f7bd
00000120: 14e2 dc3d 4c2c 113e 6e1e c3bd 0e96 893c
00000130: aa96 00be 662c dfbd f897 d03d 2d30 49bd
00000140: 9949 29bd 19e6 383d e29c cabc daf9 24bd
00000150: 6d62 ca3d 1db8 a73d ec28 2cbd d8b4 fdbd
00000160: ad36 cc3d 4668 dcbd 66d5 613d 88a8 bd3d
00000170: f896 b83d b535 c53d 9555 983c 58f4 84bd
00000180: 0874 d53d 3e74 a5bd ec59 e1bd 517b a43d
00000190: 9327 d3bd 3f30 b3bd 794b cabc 0059 763d
000001a0: 25c0 d0bc b867 1e3c cfaa 6e3d baf4 b3bd
000001b0: 390c a73d bbdd 99bd ffa3 af3d 1af4 e4b9
000001c0: 0c40 863d e583 debd 3678 e43d a984 2d3d
000001d0: d272 c53d f229 a4bd 16ef d8bd 1480 03be
000001e0: 72b3 813d 28cf f7bd bbef 49bc 24ac a73d
000001f0: a99e a1bd 6ec3 043d e5bb 14bd 6643 35bd
00000200: 3882 10be e142 9e3d a3cd 18be 943c 5cbd
00000210: 1ce1 edbd ec97 733d 9963 7bbc 4e12 05be
00000220: b4bf b03c 9f13 9e3d 1849 08bd a70f c9bd
00000230: 5c4a 57bd 4057 3b3d 3c2d 27bd d0f4 e7bd
00000240: 5138 72bc 7865 efbd a904 fcbd f891 e6bd
00000250: b3a4 aa3d ff9e c53d a157 c5bd 7d94 e2bd
00000260: d7af 17be 3452 dabd 21d9 a0bd f446 10be
00000270: 73b1 ea3d 1342 eb3a a399 76bd 01d0 863c
00000280: 7887 d53d acbd 89bd b0ee 92bc e678 ec3d
00000290: c2a0 813d a46b 2dbd e036 a33a 4346 6a3d
000002a0: 8458 9ebc 6afb 3eba 40f2 b4bd 2040 fabd
000002b0: c26c 9fbd db37 10be dd90 9dbd a669 14be
000002c0: 5732 5a3d a3f3 5d3d 2d6e 02be 8db2 c5bd
000002d0: 19ba c93d 0229 debd c1f1 e03d a435 8ab9
000002e0: 3bfb 1abe c1e0 52bc 1962 c63c cb68 673d
000002f0: 78b6 f33c 8fe9 b2bd c2e5 d1bd 54cc c9bc
00000300: 0cb1 0b3e 1b70 873d aa39 3e3c 3826 af3d
00000310: b43f 053e 2670 073e 437c 0ebe 21d7 293d
00000320: d98a bf3c f921 0b3d d72c f2bd 4f0f 91bd
00000330: 20ce aebd 8007 e53c b015 0039 7263 6abd
00000340: e397 1b3e ff6d 36bd e10c 023e a921 063e
00000350: c4ad b73d f586 0c3d 7734 60bd afff 9dbd
00000360: 9e2d 25bd 8c02 40bc 50b9 9338 7b68 08bd
00000370: 4774 143d 17b1 753d 1dfc da3d 1f4a 8e3d
00000380: b8f5 db3d c91c 8fbd bd9e 033e fb59 9f3c
00000390: 0e0a f13b 2754 dbbd 593c ccbd 1d39 a73d
000003a0: af91 9f3d 4a4d 0d3e a376 98bd ab34 89bc
000003b0: d993 f0bc c0dc 5abd dc8b adbb 35a0 163d
000003c0: c939 f0ba e469 b83c 6252 9a3d 8acc c8bd
000003d0: 0abd febd e870 4abd 957f 8bbd dd8c d9bd
000003e0: 9e4a 6cbc ee37 133c ba45 4fbb 973f 873a
000003f0: 26f9 903d 601a a03d af3a 8abd 82ad eeba

encoder.lstm.bias_ih_l0_reverse f4 [200]
0.08530053 0.010399044 -0.07255237 -0.09569925 0.07600425 0.01076263 0.06373069 -0.04612129
-0.0733394 -0.01913109 -0.052491385 -0.1017619 0.1343638 -0.07798415 0.06832508 -0.0071820673
0.031929325 0.0786322 0.055543255 -0.028642418 -0.08958792 0.08344921 0.044770524 -0.017671676
-0.04721705 0.10758538 -0.10540812 0.032656215 -0.033681057 -0.05868519 0.06300858 -0.0145313945
-0.048177004 0.058045994 0.0068163434 -0.13662475 0.04256944 0.15209748 0.04845074 -0.11085865
-0.12910816 0.010228199 -9.612889e-05 -0.14737701 -0.016922908 -0.10698562 -0.13685912 -0.1412826
-0.10973037 -0.060481586 0.11977376 -0.044045996 0.015555033 -0.08660037 -0.059902847 0.103003055
0.07566771 -0.03826082 0.068710394 0.090618715 -0.017964441 0.04831043 -0.10526404 0.10819702
-0.08046235 0.021500105 -0.012190918 0.11637822 0.13317622 0.02438058 -0.06651525 0.05587179
-0.0026334536 -0.12043935 0.11206847 0.035229146 -0.06791071 0.02945625 -0.13755494 0.13354664
0.00800261 0.13726869 0.075235106 -0.012510636 -0.026880518 0.06830633 0.08631854 0.09099523
-0.025389884 0.046438467 0.13231114 0.057448197 -0.06911012 0.0598282 0.07061277 -0.04807611
0.018321399 0.12690488 0.10874504 -0.14535166 0.05599987 -0.052419897 -0.1187891 -0.07444843
0.012614488 0.09891319 0.017303273 0.096714266 -0.051710147 0.014118763 -0.1359783 -0.03734905
0.0045612636 0.09327425 0.03791656 -0.03103141 0.14532448 0.11096412 0.07156764 -0.04207869
-0.13111137 -0.10874674 0.07000857 0.047848627 -0.04847839 -0.08754603 -0.05153375 -0.110710956
-0.04910204 -0.021192648 -0.110300705 0.12761708 -0.09959342 -0.086830534 -0.12506138 -0.033445545
0.09236628 0.094661236 -0.12555665 -0.07129999 0.091884084 0.007377478 0.09190549 0.037670806
0.121933594 -0.053560756 0.010949312 0.08323251 -0.06817122 -0.05875701 -0.08080233 -0.11356085
-0.04874178 -0.0048382943 -0.030661006 0.079630926 0.049910206 -0.011733411 0.13337567 -0.007269021
0.06814007 -0.081848435 0.07937088 0.00780379 -0.12599035 -0.03479414 0.08451059 0.09585976
-0.12178552 0.122621775 0.10148969 -0.118103564 0.038064636 -0.10918726 0.011844861 0.13559715
-0.12393257 -0.14753224 0.056686196 -0.10550352 -0.073945016 0.05978382 0.03956394 -0.031094203
-0.12892884 0.1420649 0.08761206 0.057014152 0.02466617 -0.029261736 0.016630027 -0.10324275
0.039889418 -0.117812924 0.05408235 0.12828812 -0.06324442 -0.08544765 -0.12325588 0.035032213
00000000: 0bb2 ae3d c060 2a3c 5696 94bd f8fd c3bd
00000010: 1ea8 9b3d be55 303c 3c85 823d aee9 3cbd
00000020: f832 96bd ceb8 9cbc 3501 57bd 8b68 d0bd
00000030: aa96 093e 27b6 9fbd 05ee 8b3d 8c57 ebbb
00000040: 53c8 023d eb09 a13d 5381 633d 81a3 eabc
00000050: df79 b7bd 6be7 aa3d 4c61 373d 31c4 90bc
00000060: aa66 41bd b955 dc3d 36e0 d7bd 86c2 053d
00000070: 26f5 09bd e25f 70bd a40a 813d 1615 6ebc
00000080: 4055 45bd a3c1 6d3d a25b df3b 5ce7 0bbe
00000090: 4b5d 2e3d 71bf 1b3e 4874 463d dc09 e3bd
000000a0: ee34 04be 2d94 273c ce98 c9b8 00ea 16be
000000b0: e9a1 8abc 471b dbbd cc24 0cbe 63ac 10be
000000c0: 51ba e0bd 8abb 77bd f24b f53d 9369 34bd
000000d0: 8ada 7e3c 895b b1bd b05c 75bd 44f3 d23d
000000e0: acf7 9a3d 61b7 1cbd 09b8 8c3d 4e96 b93d
000000f0: 2a2a 93bc 28e1 453d ac94 d7bd 6696 dd3d
00000100: 72c9 a4bd fd20 b03c 6bbc 47bc b457 ee3d
00000110: 595f 083e c8b9 c73c 2639 88bd d1d9 643d
00000120: 0596 2cbb e8a8 f6bd 2784 e53d 704c 103d
00000130: c514 8bbd 3c4e f13c 34db 0cbe 73c0 083e
00000140: 611d 033c 2a90 0c3e dd14 9a3d 69f9 4cbc
00000150: 8834 dcbc 30e4 8b3d c6c7 b03d b55b ba3d
00000160: 72fe cfbc 4336 3e3d 927c 073e cd4e 6b3d
00000170: 9b89 8dbd 6a0e 753d 6e9d 903d 75eb 44bd
00000180: c216 963c 5af3 013e b8b5 de3d 11d7 14be
00000190: 1f60 653d 3fb6 56bd b347 f3bd 6b78 98bd
000001a0: ffac 4e3c 0093 ca3d 98bf 8d3c 2112 c63d
000001b0: 05ce 53bd 6252 673c e53d 0bbe 51fb 18bd
000001c0: a776 953b 9206 bf3d 654e 1b3d 9535 febc
000001d0: f1cf 143e 2841 e33d 0e92 923d b45a 2cbd
000001e0: 0f42 06be 9cb6 debd a760 8f3d ecfc 433d
000001f0: 4791 46bd 554b b3bd 0e15 53bd 6dbc e2bd
00000200: 381f 49bd 349c adbc 56e5 e1bd 0dae 023e
00000210: a3f7 cbbd 35d4 b1bd 1710 00be 32fe 08bd
00000220: 882a bd3d c0dd c13d ec91 00be bb05 92bd
00000230: b92d bc3d c5be f13b f238 bc3d b44c 1a3d
00000240: 52b8 f93d 8662 5bbd be64 333c ce75 aa3d
00000250: 5a9d 8bbd 31ab 70bd b17b a5bd 9792 e8bd
00000260: 76a5 47bd 8e8a 9ebb ca2c fbbc 8a15 a33d
00000270: a56e 4c3d 7e3d 40bc a293 083e f830 eebb
00000280: 058d 8b3d 27a0 a7bd 338d a23d efb6 ff3b
00000290: 9d03 01be 4d84 0ebd e313 ad3d 1f52 c43d
000002a0: b06a f9bd 2021 fb3d d4d9 cf3d 48e0 f1bd
000002b0: aae9 1b3d 929d dfbd f310 423c fbd9 0a3e
000002c0: 5cd0 fdbd b112 17be c92f 683d 3b12 d8bd
000002d0: 7c70 97bd e1df 743d cc0d 223d 45b9 febc
000002e0: ec05 04be 7679 113e f46d b33d ac87 693d
000002f0: b510 ca3c 4fb6 efbc b23b 883c ef70 d3bd
00000300: 1663 233d e747 f1bd 7485 5d3d f65d 033e
00000310: 4a86 81bd 2dff aebd 946d fcbd f07d 0f3d

encoder.lstm.bias_hh_l0_reverse f4 [200]
0.03948101 0.07259833 0.08173286 -0.034540847 0.12876423 0.14438455 -0.06100637 -0.07246692
-0.012131451 0.10266772 0.11130775 -0.1329307 -0.013783683 -0.12444059 0.14846228 0.026241638
-0.1081873 -0.04783701 -0.08560385 0.079295866 -0.0039413064 0.021079259 -0.11866342 -0.08276042
-0.015101319 -0.007775881 -0.010989337 0.022687808 0.068949245 -0.023444505 -0.049255446 0.0003605065
0.06273842 -0.09447769 0.005581364 -0.07072372 -0.09166348 0.0115710525 0.07126564 -0.13041198
0.106800675 -0.03606175 0.033328563 0.09796188 0.06661061 0.10649731 0.11931673 -0.028856164
-0.048351206 0.0036698899 -0.004579159 0.10250736 -0.029333971 -0.10746765 -0.10311818 -0.02820373
-0.0037045053 -0.011055193 -0.057761617 0.039166953 0.044484545 -0.10177421 0.06354633 0.08155328
0.018101383 -0.071862504 0.11740519 -0.097737744 0.1107676 -0.06890444 -0.13143855 0.06652739
0.14622049 0.035444096 -0.10591292 0.102511905 -0.027796159 -0.044395957 -0.12076677 -0.07147834
0.06923563 0.08604298 -0.018129965 -0.073036164 0.1425637 -0.0020547574 0.06427242 0.1296834
0.045557443 0.06484007 0.07271011 0.013580106 0.11211284 0.10165124 -0.078828484 -0.012493512
0.058384724 0.043495625 0.083165795 -0.0708698 0.1508866 -0.048848648 -0.1424658 -0.065803975
0.097070865 -0.111406706 -0.14278454 0.08166281 0.01620154 -0.14011183 -0.0870678 -0.0669331
-0.06604214 -0.04177323 -0.09187463 -0.016781377 -0.006423766 -0.038297065 -0.09141502 -0.1357293
0.056108616 0.061318766 -0.11766177 -0.0032573575 0.125397 -0.091613956 0.108404145 0.009324029
-0.028788589 -0.11416956 0.07079009 -0.011160264 0.08460059 -0.09020486 0.011900816 0.0667737
-0.14873293 0.11993098 -0.12796243 0.03210768 0.065328546 0.03260186 0.114071935 0.011928589
-0.0014316244 -0.061727136 -0.01706173 -0.036587898 -0.08029626 0.08420542 0.048309125 -0.12252518
0.13869691 0.01874782 0.0042787357 0.13731708 0.027490946 -0.02758442 -0.09534812 0.14521255
-0.095888086 0.0049705044 -0.051049933 0.09177342 0.0016612181 -0.114391506 0.0045326855 -0.0245256
-0.007832951 -0.105050564 -0.11853739 0.081293605 -0.10009782 -0.009202986 -0.049594097 -0.041463953
-0.027969165 0.003539902 0.105330326 -0.11523388 -0.13436964 0.09442545 -0.06696644 -0.058925543
-0.078555144 -0.007760403 -0.065114535 -0.04906466 -0.07853124 -0.07286268 0.06515901 0.0227045
0.011003218 0.02683264 -0.07512007 0.011744167 0.061434545 0.02066558 0.09658195 0.0030865115
00000000: d7b6 213d 6fae 943d 8f63 a73d b47a 0dbd
00000010: c5da 033e 8bd9 133e d1e1 79bd 8969 94bd
00000020: fec2 46bc 7443 d23d 51f5 e33d fc1e 08be
00000030: f5d4 61bc b5da febd 7f06 183e b4f8 d63c
00000040: 4e91 ddbd bef0 43bd 1251 afbd df65 a23d
00000050: 1326 81bb 69ae ac3c cf05 f3bd 4c7e a9bd
00000060: 866b 77bc d1cc febb 9f0c 34bc c8db b93c
00000070: 4335 8d3d b10e c0bc 14c0 49bd 5d02 bd39
00000080: 007d 803d 857d c1bd e0e3 b63b 99d7 90bd
00000090: 10ba bbbd 8394 3d3c b8f3 913d b88a 05be
000000a0: 50ba da3d 7cb5 13bd 8883 083d 3da0 c83d
000000b0: 256b 883d 431b da3d 545c f43d c363 ecbc
000000c0: ea0b 46bd 8982 703b c50c 96bb 61ef d13d
000000d0: cc4d f0bc 0018 dcbd a02f d3bd 820b e7bc
000000e0: 49c7 72bb d720 35bc 7297 6cbd 876d 203d
000000f0: 6d35 363d ff6e d0bd 9424 823d 6805 a73d
00000100: 5a49 943c a62c 93bd 2272 f03d ba2a c8bd
00000110: 20da e23d c51d 8dbd d497 06be 833f 883d
00000120: d3ba 153e d42d 113d dfe8 d8bd c3f1 d13d
00000130: c5b4 e3bc 89d8 35bd 9154 f7bd 3c63 92bd
00000140: 69cb 8d3d 4d37 b03d 4b85 94bc fc93 95bd
00000150: 38fc 113e 1ca9 06bb 42a1 833d bacb 043e
00000160: 719a 3a3d dfca 843d 0ae9 943d 187f 5e3c
00000170: 6b9b e53d 862e d03d d470 a1bd 96b1 4cbc
00000180: d224 6f3d 7828 323d d452 aa3d 3024 91bd
00000190: 0482 1a3e 8515 48bd 8ee2 11be 3cc4 86bd
000001a0: 17cd c63d 3329 e4bd 1c36 12be d53e a73d
000001b0: 18b9 843c 7a79 0fbe 9a50 b2bd 3914 89bd
000001c0: 1a41 87bd 681a 2bbd c428 bcbd 1979 89bc
000001d0: 747e d2bb 62dd 1cbd cc37 bbbd 9ffc 0abe
000001e0: 26d2 653d 6329 7b3d a7f8 f0bd 6479 55bb
000001f0: 1268 003e 19a0 bbbd fe02 de3d d0c3 183c
00000200: 0cd6 ebbc bbd1 e9bd 65fa 903d 8ad9 36bc
00000210: 1343 ad3d 53bd b8bd a4fb 423c a6c0 883d
00000220: 724d 18be 609e f53d 9508 03be 5883 033d
00000230: f9ca 853d 8789 053d 8c9e e93d 2170 433c
00000240: 58a5 bbba 98d5 7cbd 0bc5 8bbc 31dd 15bd
00000250: 5e72 a4bd e473 ac3d cadf 453d 7bee fabd
00000260: 9006 0e3e 0795 993c a334 8c3b d99c 0c3e
00000270: b134 e13c b9f8 e1bc e045 c3bd 99b2 143e
00000280: f960 c4bd 9ddf a23b bc19 51bd b4f3 bb3d
00000290: 3bbd d93a 1846 eabd ec86 943b e9e9 c8bc
000002a0: c755 00bc c024 d7bd bbc3 f2bd 437d a63d
000002b0: 1600 cdbd 1fc8 16bc 2e23 4bbd 1bd6 29bd
000002c0: 971f e5bc b3fd 673b 6db7 d73d beff ebbd
000002d0: 3298 09be 2162 c13d b325 89bd e95b 71bd
000002e0: 85e1 a0bd fb4a febb c55a 85bd 06f8 48bd
000002f0: fdd4 a0bd 0739 95bd 1672 853d cafe b93c
00000300: d746 343c 20d0 db3c 8dd8 99bd 9b6a 403c
00000310: caa2 7b3d dd4a a93c c2cc c53d 1247 4a3b
