projects/proj4/models/supervised_model.pt (torch_old, 297400 bytes, 21 tensors)

encoder.lstm.weight_ih_l0 f4 [200, 50]
00000000: 0408 a7bd 3b87 24bd d9ce 1f3c 1eb3 ee3c
00000010: b5c9 a83d 9dfc f63d 65e3 00bd 3899 32bd
00000020: c605 aa3d c147 22bd 4c6a 2cbe ee89 31be
00000030: 03f8 4e3e e00a c0bd b4ec e1bd c235 6ebe
00000040: bc14 1f3d e048 41bd db7c 8dbd 396a 8a3c
00000050: b9ef 99bd 46cf adbd 1fa4 643e a7f0 073e
00000060: 7e4b 44be 483f ddbd bd83 20be fd54 b0bd
00000070: bcc0 773d 3194 ff3d 8439 09be ad8c 8f3d
00000080: 72cd e93d e49e 1d3c f2da 95bd 0d2d 8a3d
00000090: fe13 f63d f3b2 52bd b6d0 9cbd f8e3 84bd
000000a0: c773 803c 30f2 e9bd 021f c8bd 97de fabd
000000b0: 2227 f4bd be0a 913d 1bff 91bb c0c5 5dbd
000000c0: 9cce da3d 7436 e63b 3643 0fbb 37b9 113e
000000d0: 2c1c 12bd 85ad 3ebe e9ba 8fbc de4d 873d
000000e0: 29c0 fcbd d9ca 22bd d8c9 f13c 09df c2bd
000000f0: 908b 9e3c 9752 d6bd c852 373e 3c25 cdbc
00000100: c5e7 febd d7e7 c4bd bda2 2b3d 3c81 03be
00000110: 6def 283e e514 213e 1a99 99bd 4dae 49bc
00000120: 006d 08bd 6ac2 c4bd a39b e6bd c996 f9bd
00000130: 83eb 23bc 0e37 c9bd b6f3 b4bc db6f 19bd
00000140: 7450 91ba 9a12 64bd 29ef 91bd aae1 eabd
00000150: a0dc e1bd bfff af3c e3a8 cabd 814c 4a3e
00000160: c510 bf3d 77b3 0dbd 66e9 1bbd 06bf 19be
00000170: 9f8b 06be 5ce9 29bd f3d3 83bd b0b4 9fbd
00000180: b5a4 38bd 9daf 213c c00a 383e 3c11 83bd
00000190: b809 0e3d 0975 283d f094 21bd 64c9 f9bd
000001a0: 5c81 a7bc d0b3 263d a646 333a fa53 e2bd
000001b0: e2d3 a83d 64cb d1bd 4283 44be 1364 babc
000001c0: 7f36 fd3d 73f5 95bd 6dad efbd 9889 95bd
000001d0: cb79 c1bd 09c5 dbbd 79a6 083e 4eb1 613d
000001e0: 1d83 9c3d 95ab 023d 3af0 abbd 0661 e8bd
000001f0: e943 dfbd 6ebd 04bd 6c48 253d 6865 f23c
00000200: ba06 bebd 6998 a0bd 5071 8a3d 627c e9bd
00000210: 8954 ed3d 200c 6fbd 2232 0d3e caca f43b
00000220: 57c0 6fbd 5135 51bc 82f5 c73d 1438 243d
00000230: 1d3a 8dbd 369b fcbb 3f0c f8bd 1d5d 14be
00000240: 568c 443d 8283 023e 6fdf 8a3d 792c 56bd
00000250: f5ba 0ebd c522 91bc 2894 b93d 7d02 023e
00000260: 4643 e43d 4b06 de3c 7a39 fcbd c59f c63d
00000270: e296 69bd 01d9 eabc 9018 c3bd 49ba 0dbe
00000280: 706f 373d d748 983c ba5f c93d f6e4 9bbd
00000290: 1474 aa3d 8be9 25be b6ed 42bd 318b 8cbd
000002a0: ba03 353c 19b0 01bd c869 bc3d d2bd d43d
000002b0: 4bac 143d e4ae 303d b39d 10be 3f71 ccbc
000002c0: 7f7e 86bd 82ec 043d b40a c3bd 06aa d8bd
000002d0: b4f3 703d a541 71bd b607 afbd 593c c53d
000002e0: 3503 3cbc 39c2 33bd 190b d43d abca e33d
000002f0: 62ab debd 1cc3 cb3d bb6a c63d acc8 0f3e
00000300: b96b 143d f27e fabb 2885 d3bd 133e b9bd
00000310: ecb8 25bd b34e 0ebd 7733 dcbd e010 e5bd
00000320: b53a c63d 63aa c03d 08d3 193e c8d7 64bd
00000330: 21c4 dabd dd6b 01be 5029 9b3d c5b5 cf3c
00000340: bc12 5ebd 727d c4bd e3ea f9bd 400d ccbd
00000350: 146d 153e 8a1e 283e fb6b 0abd d501 deb9
00000360: d180 59bd d076 1abe 611e 013e 1cb8 263d
00000370: 3b6f 003e 0e44 293d 563f 243e 0d26 103e
00000380: c841 163e 7ff9 db3d 8325 0ebe 175a 3bbd
00000390: e002 28bd 9f8c da3d ba2a 42be 36c5 8e3d
000003a0: e8b8 2abd 7a09 f5bd e9a9 babd ae6d 203d
000003b0: 8f0a dbbc a341 003d 1a82 d1bc dcd2 0abd
000003c0: 03cc c4bb 82f3 7e3d ad87 fdbc 43b4 bbbd
000003d0: 0645 a0bd 5e43 643d c43e 5e3c 3bb0 8abd
000003e0: c486 0b3e 50af 233e 90b5 b83d de3c 3abe
000003f0: 1bf0 293c c825 f33d 0179 07be bf32 53be
-0.08155826 -0.04016803 0.009753906 0.029138144 0.082415976 0.12059901 -0.03146686 -0.043603152
0.083018824 -0.03961921 -0.16837424 -0.17337772 0.20211796 -0.09377074 -0.11031476 -0.23262694
0.038838133 -0.04718864 -0.0690858 0.016896354 -0.075164266 -0.084868 0.22328232 0.13275395
-0.19169423 -0.108030856 -0.15675254 -0.0860996 0.06048654 0.12479437 -0.13400847 0.07009254
0.11416139 0.009620402 -0.07317151 0.06746874 0.12015532 -0.05144019 -0.07656996 -0.06488794
0.015680207 -0.11423147 -0.09771539 -0.12249487 -0.119215265 0.07082127 -0.00445546 -0.054143667
0.10683939 0.0070255343 -0.002186013 0.1423081 -0.035671398 -0.1862088 -0.01754518 0.06606649
-0.12341339 -0.03974423 0.029515192 -0.09515197 0.019353658 -0.104649715 0.17902672 -0.025042169
-0.1244655 -0.096145324 0.041903246 -0.12842268 0.16497584 0.15730627 -0.07499905 -0.012309623
-0.033307076 -0.09607394 -0.11260154 -0.12186963 -0.010004881 -0.09824954 -0.022088867 -0.03746019
-0.0011086599 -0.055681802 -0.07125694 -0.11468823 -0.11028409 0.021484254 -0.09895494 0.19755746
0.093293704 -0.03459498 -0.038064383 -0.15014276 -0.13139199 -0.041482314 -0.064369105 -0.07798135
-0.045078952 0.00986853 0.17972851 -0.063997716 0.034677237 0.04112724 -0.03944868 -0.12196615
-0.020447426 0.040698826 0.00068388355 -0.110511735 0.082435384 -0.10243872 -0.19190696 -0.022752797
0.1236391 -0.07322206 -0.11703 -0.073016346 -0.09447058 -0.10730941 0.13344754 0.05510073
0.076421954 0.031901915 -0.08395429 -0.11346631 -0.10901625 -0.032407217 0.04035227 0.02958937
-0.09278627 -0.0784157 0.06759894 -0.11400677 0.115883894 -0.058361173 0.13788655 0.0074704634
-0.05853304 -0.012769059 0.09763624 0.040092543 -0.0689585 -0.0077089323 -0.12111711 -0.14488645
0.047985397 0.12745479 0.06780898 -0.052288506 -0.034846265 -0.017716775 0.09061462 0.12696262
0.11145644 0.02710261 -0.1231565 0.09698442 -0.05702866 -0.028667929 -0.09526169 -0.13840593
0.04478401 0.01858942 0.098327115 -0.0761203 0.083229214 -0.16202371 -0.04758998 -0.06862486
0.011048252 -0.03166208 0.09199864 0.10387768 0.036297124 0.04313554 -0.14122657 -0.024956344
-0.06567096 0.032452114 -0.09523526 -0.105793044 0.058826163 -0.058900494 -0.085463926 0.09630651
-0.011475374 -0.043886397 0.10353679 0.1112264 -0.108725324 0.099493235 0.09688326 0.14041394
0.036235545 -0.0076445276 -0.10328132 -0.09045043 -0.04045956 -0.034743022 -0.10752004 -0.11184859
0.09679166 0.09407499 0.15021908 -0.055869848 -0.1068194 -0.12638803 0.07576239 0.02535523
-0.054217085 -0.09594239 -0.12203004 -0.09963465 0.14592391 0.164179 -0.033794384 -0.00042344505
-0.053101365 -0.15084386 0.12609245 0.040702924 0.12542431 0.041324668 0.16039786 0.14077015
0.14673531 0.10740947 -0.13881497 -0.045740213 -0.041018367 0.106713526 -0.18961611 0.06971209
-0.041680247 -0.11964698 -0.09114439 0.0391671 -0.026738433 0.031312596 -0.025574733 -0.033892497
-0.0060057654 0.062243946 -0.030948484 -0.091652416 -0.07825665 0.05572831 0.013564769 -0.067718945
0.13625628 0.15984845 0.09019005 -0.18187281 0.010372187 0.118724406 -0.13229753 -0.20624827

encoder.lstm.weight_hh_l0 f4 [200, 50]
00000000: c0b6 763b 7c71 e4bd 805a 51bb 119d f7bd
00000010: 2735 d43d d26e 093c 7eb0 0f3d 1d2e 35bd
00000020: 3d6f 17bd 75f9 52bd 961c 293e 913d 13be
00000030: 12e5 45bd 4b62 5abd ff08 37bd b821 c53d
00000040: 746c ddbd 51d2 bf3b 20c9 b83c e29c 68bd
00000050: ce05 a8bd 2d07 983d 7bad f9bd 3607 99bd
00000060: 66ad 673c 1b7b 193e d70a d03d af99 0abc
00000070: e473 85bc 2075 de3d e87e f93d 1ebd a73d
00000080: 0315 c4bd 4ff8 9fbd ef9c b2bb 83be 323e
00000090: e9c5 ca3c 11d0 443d ad6f b33d f907 98bd
000000a0: a092 023d 03a5 b43d 3ab6 3cbd ffb0 d43c
000000b0: 349d b53c 5aad e4bb 02b7 f83d 3433 023e
000000c0: d370 a23c 2807 6a3d 9c2d 113e b32e 3c3e
000000d0: 6573 12bb bd34 1fbe 2c96 0dbe f2e2 1ebd
000000e0: b7c5 323a ecbf d73c 8c70 3d3d cd75 bf3d
000000f0: b35f 34bd cf52 0ebe 92a1 3fbe 81c1 463d
00000100: 78f1 b73d 8ea9 6f3d 66ec 9fbc 598d e3bd
00000110: 058c 5a3e e085 29be 3104 95bd e35b 043e
00000120: c745 84bd 7b57 00be 9f81 2f3d 83ce 86bc
00000130: ed8d 45bc 856f 313e 4fc5 1bbd dc08 ec3d
00000140: af77 ba3a 3e23 a13c 64f3 11be 128d 063e
00000150: adbd 283e 17ca a5bc 4bc5 a43d 112d 04bd
00000160: 0f16 88bd e7a6 c33d bda0 023e 1965 05bd
00000170: a191 53be 7dee 57be 86e4 f53d 8197 09be
00000180: 189a b3bc 3485 1e3d 002c 16be 30fb d2bd
00000190: 6067 06bd 2f3d 1d3e 14b2 a73d bc14 09be
000001a0: 06f8 16be a5d0 46bb 3fd6 143b 17f8 363d
000001b0: 6e74 a0bd a46f d03d 424f 8dbd ebd7 c43c
000001c0: db20 32bd b453 1abd 8c76 9cbd b1aa 943d
000001d0: 603d 0c3e b6b8 943d 07b9 d03d 712f 49be
000001e0: dc7a 803d 3d5f b8bc 45d3 c93d 9b81 9cbd
000001f0: 3ab4 49bd 6d39 b73d bb36 23bb e2ea 8fbd
00000200: 167c 9f3d 8bbb f43c 1f5b 143d 7ae4 d6bd
00000210: e165 8bbd 8ea3 3cbc 6121 bd3d 39dd d73d
00000220: 729f 6b3c 7af6 8e3c 242f 4dbd 7d4d bcbc
00000230: 720b f63d 3895 3dbb 09af 953c f31e 8a3d
00000240: a878 57bd 4ba1 a93d d689 d7bd aa32 aabd
00000250: 8c60 abbc 7a9e 25ba c430 a0bb e370 4dbd
00000260: 54ea f8bc f094 bb3d 4bd6 f53d 57f8 99bc
00000270: 0aec a53d acfe a73d 8d91 1fbd cac2 443c
00000280: 4600 4ebd de25 5e3c ac53 3bbe 3845 03be
00000290: 30bc 1dbd 19b9 3a3d 0ca5 91bd 347d 87bd
000002a0: 7060 0c3d f57c 0ebc f7df 1c3d 5a90 d7bd
000002b0: 6ab0 e5bd 3de9 15bd 9021 c4bc c9c8 903d
000002c0: 64c3 ff3d fdbc 643d acfc e33d d741 963d
000002d0: 21d3 be3d 41c3 e43d 414e d7bd 1735 bd3c
000002e0: 2d35 0dbd b90b 7ebd 40d5 ae3d 510f b73d
000002f0: b54a 073d a57f 2dbd 3e10 bc3d d680 e8bc
00000300: 9395 a33d b3c0 0ebe 7078 f53d 3b6a eabd
00000310: 47dd b43c 02a4 b73d 9b5e 1a3e 9d47 9d3d
00000320: 6149 8cbc b9f7 553e a567 253e 8eaf efbd
00000330: ee25 fbbd 2f41 06be 29bf 6c3d bf2b 5fbd
00000340: 2923 a13d a058 ddbd 202d 983d 6b6a d2bd
00000350: 62e6 3dbe 49b2 523d 89cf ac3d 3340 dcbd
00000360: 02c2 643d 5408 6fbd d236 963d 5859 70bd
00000370: be16 9e3d 2498 f73d a15d b7bd c0b0 f3bd
00000380: 17ee 2abc c96a 93bb ca95 26be 8b10 0d3e
00000390: e2e5 5d3c 6587 f83d f4b0 5fbc 42ea b1bd
000003a0: ad15 0ebe f88c ac3d 690b 80bd c4f1 2f3d
000003b0: 6745 adbc 7007 453d ebc3 df3d 9163 2abd
000003c0: 452e c83d c580 52bd 27e6 87bb 4fde 0abe
000003d0: 0060 033e 3edf 35be 6a97 813c 4b19 453e
000003e0: 3b92 18bd 500b 37be 0ca5 1abe fc1f bd3d
000003f0: e7f5 19bd 885a 0ebe 6588 f4bc caf2 fe3d
0.0037645549 -0.11154458 -0.0031944811 -0.12090505 0.103617005 0.008388238 0.035080425 -0.04423343
-0.03697132 -0.051507432 0.16514811 -0.14378954 -0.04831416 -0.053316396 -0.044686314 0.09625572
-0.108117014 0.005853929 0.022556841 -0.05679024 -0.08204232 0.07423244 -0.12191292 -0.074720785
0.0141404625 0.14988367 0.101583175 -0.008459493 -0.016290613 0.108621836 0.121824086 0.08190368
-0.0957432 -0.07811033 -0.005450837 0.17455487 0.024752574 0.04804999 0.08761535 -0.07423396
0.031878114 0.08820536 -0.046072222 0.025963305 0.022169687 -0.006978673 0.12144281 0.12714845
0.01982919 0.05713573 0.14177555 0.1837719 -0.0022346613 -0.15547462 -0.13826817 -0.03879065
0.0006819623 0.026336633 0.04624991 0.093486406 -0.04403658 -0.13898776 -0.18713978 0.048524383
0.089816034 0.05851131 -0.019521903 -0.11110944 0.21342476 -0.16554976 -0.0727619 0.12925677
-0.064586215 -0.12533371 0.042848226 -0.016455894 -0.0120577635 0.17327698 -0.038029965 0.11525127
0.0014226342 0.019670125 -0.14253002 0.13139752 0.16478606 -0.020237966 0.08045443 -0.03226954
-0.06644832 0.095533185 0.1275663 -0.032567117 -0.20661022 -0.2108707 0.12006478 -0.134367
-0.021924064 0.03870125 -0.14665222 -0.103018165 -0.03281343 0.15355371 0.081882626 -0.13386816
-0.14743051 -0.0030336764 0.0022710708 0.04467019 -0.07834707 0.10177544 -0.06899883 0.024028739
-0.043488365 -0.03767748 -0.076397985 0.07259119 0.13695288 0.07261793 0.10191541 -0.19647004
0.062734336 -0.02250635 0.098547496 -0.07641908 -0.049244143 0.089465 -0.0024904448 -0.07027222
0.077873394 0.029874584 0.036219712 -0.10492797 -0.06806541 -0.011513604 0.09234882 0.10540242
0.014381276 0.017451514 -0.050093785 -0.022986168 0.12013902 -0.0028928053 0.01827194 0.06744184
-0.0526053 0.08282717 -0.10524337 -0.08310445 -0.02092006 -0.00063178653 -0.004888626 -0.050156485
-0.030385174 0.09159267 0.12003764 -0.018795175 0.081016615 0.08202872 -0.038957167 0.012009332
-0.05029323 0.013558833 -0.18293637 -0.12819374 -0.038509548 0.04558668 -0.07111558 -0.066156775
0.034271657 -0.008696784 0.038299527 -0.1052558 -0.11215289 -0.036599386 -0.023941785 0.07069547
0.1248844 0.055844296 0.11132178 0.07336777 0.093176134 0.11170054 -0.105129726 0.023096604
-0.03447454 -0.0620229 0.08536768 0.08938468 0.03303023 -0.04235806 0.091827855 -0.028381746
0.079875134 -0.13940696 0.11985862 -0.11446043 0.02207817 0.08966829 0.15075152 0.07679675
-0.017124834 0.2089528 0.16152819 -0.11703406 -0.12263094 -0.13110803 0.057799492 -0.05448508
0.078680344 -0.108079195 0.07430482 -0.10274204 -0.18544915 0.051439557 0.08438022 -0.107544325
0.055849083 -0.05835755 0.07334675 -0.058678955 0.077191815 0.120895654 -0.08953405 -0.11898947
-0.010432742 -0.0044988138 -0.16268077 0.13775842 0.013543578 0.121351995 -0.013653029 -0.08687259
-0.13875456 0.08425325 -0.06252176 0.042955175 -0.021151258 0.048102796 0.1092604 -0.04159886
0.0977445 -0.051392335 -0.0041473093 -0.13561366 0.1282959 -0.17760941 0.01581927 0.1924793
-0.03724883 -0.17875409 -0.15102023 0.09234616 -0.037588026 -0.13901722 -0.029850194 0.12448652

encoder.lstm.bias_ih_l0 f4 [200]
00000000: 940c e2bd 7149 7d3c 1897 c6bc 658a 033e
00000010: 9e8c b1bc f677 113c 1eb8 013e 57e0 edbc
00000020: b1b3 6b3d e462 ef3d 86d4 be3d 4946 05bb
00000030: 31ce 3a3d f85a d13d 3744 abbd 93a1 df3d
00000040: 1381 c23d 6a84 1e3e 4031 2b3e 23e9 253b
00000050: 36f3 933d 5831 863d e38d 80bd 9369 943d
00000060: 9438 5dbd a768 0d3e 3a6b 8abc c1a5 753c
00000070: 1b0c f5bd df1a c9bc e8dd 913a 21c0 253e
00000080: 2ebd 87bb 3063 2d3d f613 98bc d608 cf3d
00000090: 9eb4 a13c 49e2 0a3e baf9 d93d 2763 b63d
000000a0: 3f4a fe3d 9b11 e83d 9100 f93d 5c0b 743d
000000b0: da23 b73d dbfd 04bd e14f 793d 54cb 2c3e
000000c0: 1f92 333e 16ee f43d 8fca 3a3d b052 9e3c
000000d0: badb ab3d 2537 98bd e6e6 533e 0c72 b2bc
000000e0: e881 c7bd e493 503d b87e 083e 7693 633d
000000f0: 9aa7 8ebd a898 e8bd 1379 d03c 483c 963d
00000100: 3e60 04be 889c 253d 4a48 043c 53cb 983d
00000110: c55b ff3d 59ed 113e 5c57 0e3e ddbd 953d
00000120: 25ba fc3c afa0 293e 70c0 f3bd 688d d53d
00000130: 1a6e 603d 1a7c 2f3e b3f1 213e d214 8bbd
00000140: 94a9 80bb b9f4 4a3e 55c8 06bd 3add 883d
00000150: 887a fd3c 2128 9abd 49c9 113e 9da1 c23c
00000160: e2c5 9dbd d65a 223e 82c6 533d ad2b 863d
00000170: 02dc 063e 89e6 ac3b 58ae 133e ede1 31bd
00000180: bc87 80bd ecd5 eb3d e972 323e ad25 53bd
00000190: 65c1 b63d a110 133e 1321 733d adf7 1abe
000001a0: 0eeb 3bbe 578b 1dbe 2808 b6bd 41fe 21be
000001b0: 3bc2 de3d 0ca4 c13d 65ab 8b3d 7f16 62bd
000001c0: ebf8 b0bd 0493 e8bd 9114 9e3d 2750 d6bc
000001d0: 5cf3 953d dcec cdbd d9e5 8a3d 0493 a1bd
000001e0: 72b3 babd 42d9 093e cedb b6bc 6111 49bd
000001f0: 3fd3 0e3e 9f8b f43c ba42 3bbe f531 363e
00000200: 0c4e 043e c905 9f3c 0c08 c03d 4d1a 26be
00000210: 6391 b6bc 9872 4c3e b8eb 91bc 06bc 1d3e
00000220: 11ab dbbb 4777 12be 5b45 cc3c b421 bc3d
00000230: 4780 293e 6445 843b 8d6c 89bd f263 1a3d
00000240: d0c3 c13d 3e10 803d 3c9f f73d 4b56 ce3d
00000250: 1e60 0e3d 87a5 94bc 1c33 91bd e160 89bd
00000260: 44c6 9abd de8d 0f3e edc4 ee3d 8296 0cbd
00000270: f20a 2f3e 237c 613d 91ec bb3c 47e9 c7bd
00000280: 4a8c b63b f4cf dbbd 481f 2e3e 2799 0dbd
00000290: a315 ad3d 0d70 293c 9209 c3bd 1176 8a3d
000002a0: b3dc adbd 5c45 b53d 6f04 d3bc 4316 b73d
000002b0: be60 ae3d 6fa0 b43d 6aaa 91bd 6c5c 033e
000002c0: 821b 633e 7c18 95bd 4c38 ddbd a5cd ce3d
000002d0: 6472 183e b452 aabd a8d9 8bbd caa5 093e
000002e0: 98b3 83bd 14b8 b43d 6b71 44bc 2372 813c
000002f0: 9d9b b0bc cbab 343e 70e5 b8bd 13b8 993d
00000300: 6708 803d ddb9 113d ada2 153e efff 263e
00000310: eb2a 1dbd b947 523d 65aa 1e3e e97e a33d
-0.11037555 0.015459404 -0.024241969 0.12845762 -0.021673497 0.008878699 0.12667891 -0.029037638
0.057544414 0.11688784 0.093178794 -0.0020336083 0.045606796 0.10222429 -0.0836262 0.1091949
0.09497275 0.154802 0.16718006 0.0025315962 0.07224123 0.0655238 -0.06277063 0.07246699
-0.054009035 0.13809453 -0.016896833 0.014993132 -0.119651996 -0.024548946 0.0011128755 0.16186573
-0.004142425 0.04233092 -0.018564206 0.10109107 0.019739445 0.13562883 0.10643335 0.089056306
0.12416505 0.11331483 0.12158311 0.059581146 0.08942385 -0.032468658 0.060867194 0.16874439
0.1753621 0.11959474 0.04560333 0.019326538 0.08391519 -0.07432393 0.2069355 -0.021782897
-0.097415745 0.05092229 0.1332959 0.05556055 -0.06965561 -0.11357242 0.025448358 0.073357165
-0.12927338 0.040432483 0.008073876 0.07460656 0.124686755 0.14250697 0.13900512 0.07311604
0.03085048 0.16565202 -0.11901939 0.10427362 0.0547925 0.17137185 0.15814857 -0.067910805
-0.0039264653 0.19819917 -0.032905895 0.066828206 0.030942217 -0.07527185 0.1423694 0.023758704
-0.07703759 0.15854964 0.051702984 0.06551299 0.13169864 0.0052765054 0.14421976 -0.04342835
-0.06275889 0.11515412 0.17426647 -0.051549602 0.08923606 0.14361812 0.059357714 -0.15133543
-0.18351385 -0.15385185 -0.088882744 -0.15819646 0.1087689 0.094551176 0.068198 -0.055197235
-0.08641227 -0.11356166 0.077187665 -0.026161266 0.07321808 -0.10054943 0.06782121 -0.07889369
-0.09116258 0.13461784 -0.022321608 -0.04908884 0.13947771 0.029851733 -0.18287173 0.17792495
0.12920398 0.019411938 0.09376535 -0.1622097 -0.022286123 0.19965589 -0.017812595 0.15403756
-0.0067037423 -0.14303313 0.024935415 0.09186116 0.1655284 0.0040365923 -0.067101575 0.03769297
0.094611764 0.06253098 0.120909184 0.10075053 0.034759633 -0.018145336 -0.070898265 -0.06707931
-0.075573474 0.14018962 0.11658654 -0.034323223 0.17094019 0.055050027 0.022939952 -0.09761291
0.005570923 -0.10733023 0.1700412 -0.034569886 0.084513925 0.010341656 -0.0952331 0.06760801
-0.08489361 0.0885112 -0.02575895 0.08939793 0.08514546 0.08819663 -0.07112582 0.12828225
0.22178462 -0.07280061 -0.108017534 0.10097817 0.14887387 -0.083165556 -0.06828624 0.1344215
-0.06430739 0.088241726 -0.011989932 0.015801495 -0.021558577 0.17643659 -0.09028137 0.075058125
0.062516026 0.035577644 0.14612837 0.16308568 -0.038371008 0.05133793 0.15494688 0.079831906

encoder.lstm.bias_hh_l0 f4 [200]
00000000: 3e30 6f3a 3f10 f33a ab4f c93d e5dd b6bd
00000010: 9109 c13d 9e75 9dbc 41b4 54bd 9ea4 3cbd
00000020: c9e5 78bd 0936 a6bc 53e0 0dbe 7de8 8f3d
00000030: ddb9 bdbd b3be 163e f50a 6c3c e3c0 173e
00000040: ee10 15bd 43a5 333d ed94 853d e4f6 c03d
00000050: fa1c b33d 46b5 403e ddc6 ccbd e2fa 443d
00000060: 7ce4 e73d f9a7 2d3e 49dc 2bbc ff13 423e
00000070: 7326 1a3e 8f3e aabd f6a4 593c 99b2 b93d
00000080: 5ef6 1b3e 1399 513d ac04 a03d 70d5 c3bd
00000090: b40a 1c3e bcd2 d13d 802d 06bc 65c3 453e
000000a0: 6b6c 9c3d 8602 023d eb9a 143d c076 0e3e
000000b0: bb51 b53c 920a d4bc 4a4b d93d 728a 053e
000000c0: 1d1e cc3d b4fa 8abc 8dd3 b3bd 4e18 943c
000000d0: f365 cebd e70a 00be d0b8 223e 0266 cbbc
000000e0: 0fcf a83d 7d80 1cbd ac5e d63d 4c9a 86bd
000000f0: 3bba 10bd f87f 9ebc c28f 66bd 5f36 703d
00000100: 2ecb 0e3e 4328 d0bd 18c8 58bd 8c19 d9bd
00000110: 86dc 66bd d2c8 53bb 3a94 82bc b482 1a3e
00000120: 6052 e53c b3b3 883d 1a5d 103d 48ae 293e
00000130: 89fd 7bbd ca40 213d 7c02 cf3d 12d7 edbd
00000140: 8ce8 043c 07ad adbc 674e bc3d a980 273e
00000150: b8b7 a1b9 fd4d 6a3d 0b40 e7bc 1446 753d
00000160: 125d 3f3c 431e 2a3d 90a6 0cbd f152 123e
00000170: c499 a93d 64b9 2b3e 85bb d1bb 2586 f43c
00000180: e367 76bd 7808 403e ad15 9b3d a131 113e
00000190: b77f 003e 3e30 023e 5436 103e 9d34 a53c
000001a0: 1470 65be ba75 d73b 4cd5 dcbd 186f 953c
000001b0: a73f 783d ac1f dfbc e46f 9a3d f5a3 96bd
000001c0: 8fd2 25bd 0715 2dbe 1f74 ee3d c86a 27be
000001d0: a8e6 053e 7dfc 7bbd ac38 0e3e c48f f0bd
000001e0: 5865 28bd e16f 393d ff0b 06be 49fa 95bd
000001f0: 6532 e0bc 0714 003e 9257 16be fc0c b43d
00000200: 1d9d 1c3e 683a 013c 8cce f93b 7cfd 42be
00000210: ac6d 17be 65ad a83b 041e 683e da2b 07bb
00000220: bcf3 bfbb 80b1 793d c301 53bd 5d59 b33d
00000230: 93d0 a53d 9e7c 5abc 8fd4 e9bd 70f7 43bd
00000240: b53f 4439 f80f 2ebe 4587 8e3d 9ace 613e
00000250: 9223 2ebe 60c6 aebd 105a 383e 8ffa c33c
00000260: ec0e c03d 0431 d1bd 5cb1 1a3e 94f9 053e
00000270: 6730 2fbd 1e3e bbbd 331f 353d b817 d4bd
00000280: e9ba 12bd 90d8 d0bc a0d1 9bbd 9f93 013e
00000290: a13e f33d a9fb 0f3e 2109 cbbd 09b5 5c3d
000002a0: 0d5f 3c3c 562a 913c 93ec 90bd 8ed3 473b
000002b0: 06ea c93d 35cc 2d3d 875f 913c 0d58 5b3e
000002c0: 9233 773d c6df 273e 91b2 8f3c 32ed 563d
000002d0: e498 3bbd 5d3d fabb 7a65 9b3d 08d3 3ebc
000002e0: db9f a03d 480f 213e cff6 293d 335e e33c
000002f0: 3ca5 e3bd 9e4e f13d 4bed 883d e8ed 543e
00000300: 8a8c b53d 2f60 c1bd ea11 c13d 1421 2f3e
00000310: 541b 273c 04f5 bf3d 3058 9b3d fe5f 0fbd
0.0009124315 0.001854427 0.098296486 -0.08929042 0.09425653 -0.019221123 -0.051929716 -0.04605543
-0.060766015 -0.020289438 -0.13855104 0.070267655 -0.09263966 0.14721183 0.014406909 0.14819674
-0.0363931 0.043858778 0.06522546 0.09422091 0.08745761 0.1881915 -0.09998868 0.048090823
0.11322877 0.16958608 -0.010489532 0.1895294 0.1505373 -0.08312713 0.013283959 0.09067268
0.152307 0.051171374 0.07813391 -0.09562194 0.15238458 0.102452725 -0.008189559 0.19312818
0.076378666 0.031740688 0.036280554 0.13912487 0.022133699 -0.025883947 0.106100634 0.13041094
0.09966681 -0.016965248 -0.087805845 0.018077996 -0.10078039 -0.12504159 0.15890813 -0.024828915
0.08242618 -0.038208473 0.10467276 -0.065723985 -0.035333853 -0.01934813 -0.056289442 0.058645602
0.13944694 -0.10163929 -0.0529252 -0.10600576 -0.05636265 -0.0032315743 -0.01593982 0.15088922
0.027993381 0.066749 0.03524504 0.1657039 -0.061521087 0.03936843 0.10107896 -0.11613287
0.008112084 -0.02120067 0.091946416 0.16357674 -0.00030845194 0.05720328 -0.02822878 0.059881285
0.011679905 0.041532766 -0.034338534 0.14289452 0.082812816 0.1676994 -0.006400528 0.029849121
-0.060157668 0.1875323 0.07572494 0.14179088 0.1254872 0.12713715 0.14083225 0.02016669
-0.22406036 0.0065753134 -0.10782871 0.01824145 0.06060758 -0.027236782 0.07540873 -0.07355491
-0.040484007 -0.16902553 0.11643242 -0.16349328 0.1307627 -0.06152009 0.13888806 -0.11746171
-0.041112274 0.04527271 -0.13090514 -0.07323129 -0.02736778 0.1250764 -0.14681843 0.08791539
0.15294309 0.00788746 0.0076234993 -0.19042009 -0.1478793 0.0051476234 0.226677 -0.0020625503
-0.005857913 0.060960293 -0.051515352 0.08757279 0.08096423 -0.013335375 -0.114174955 -0.047843397
0.0001871575 -0.16998279 0.06959394 0.22051468 -0.17005756 -0.08533931 0.18003106 0.023923187
0.09377846 -0.10214427 0.1510672 0.13083488 -0.04277077 -0.09142707 0.044219207 -0.103560865
-0.035822783 -0.02549389 -0.07608342 0.12653969 0.1187718 0.14060844 -0.099138506 0.053883586
0.011497271 0.017720383 -0.07076373 0.0030491087 0.098590896 0.042431075 0.017745746 0.21420307
0.060351916 0.16393957 0.017541202 0.0524723 -0.045800105 -0.0076367096 0.075877145 -0.011646993
0.0784299 0.15728486 0.04149514 0.027754879 -0.111155 0.11782573 0.06685885 0.20793879
0.08864696 -0.09442174 0.09427245 0.17102462 0.010199387 0.09372905 0.0758518 -0.035003655

encoder.lstm.weight_ih_l0_reverse f4 [200, 50]
00000000: 022f 07be 9b65 cf3d 6d39 003e f975 b1bd
00000010: 1112 f93d a220 d23c 1520 c23d 290a a43c
00000020: d853 20be 98e9 0f3e a65f 0fbe c284 8bbd
00000030: 9dec 67bb 5db4 8fbd e052 10be ab42 00be
00000040: dcf5 763b c116 d6bd dfaf bfbd 5481 c6ba
00000050: f2ac 373e ecad 08be ac27 5ebd 3987 aebc
00000060: 09e0 c8bd c945 91bd bebb 79bd f59d 9c3d
00000070: bbc7 a43d 276d 863d 1543 f83d 105b 123d
00000080: 98d7 f5bd 2cf4 afbc 0597 b73d 1bcc b8bd
00000090: 3e89 b03d d7b7 67bd 3fbb 0bbd e95f 123c
000000a0: 5df6 21be 3696 e9bd 71bb ae3c 247e bdbd
000000b0: bb2b 89bd 6bd9 d7bb dfbd b5bc 6c98 3abe
000000c0: 6ef1 463c bcd1 3abd 87cd 4a3d 1d85 b23d
000000d0: df4b acbd fc8f bebd 20e4 b73d d8cf f93d
000000e0: 4e30 cb3d d229 a63d 137a 913d 73c5 acbd
000000f0: 2005 0cbe a78e c7bd 8e6d 66bd 2431 bf3d
00000100: c4dd 98bd ea40 fcbd f618 3e3d afc4 5dbd
00000110: a400 b03d 7760 793d 228b 0d3e 18f8 7ebd
00000120: c43d 833d 4f22 f13d c408 3f3d 1f12 243d
00000130: eb84 0fbe 5e6e c8bd 0728 01be b53a 97bb
00000140: b8d2 90bc 3f0d a0bd 7405 3f3d 4cb2 893c
00000150: 1d24 12be 49e8 36bd 5cef b33d 4162 bdbd
00000160: a523 363e 084b e03d 86a6 fbbd a5b0 0fbd
00000170: 838a afbd cefb 23be bbb4 9d3d 3b1b 3bbc
00000180: 1799 843d 1e15 dfbd 54bc 02be a845 0dbe
00000190: 1e7b c3bd 1189 3e3e 1935 50bd 559f 183c
000001a0: 1da7 87bd 4b4a 0d3d 107b 8dbd e881 aebc
000001b0: 2c56 de3d c2ad fb3c fa0a 683d e1a6 b4bc
000001c0: 5a1e d93d c522 9f3d 989d bf3d c0fa 2bbe
000001d0: e685 9a3d 3906 8d3d 9a0e 89bd 65cc 873d
000001e0: fcb6 303e 006a 4f3d 855d 583b 9993 003e
000001f0: e61f 103d d6f0 59bb 836e 783d 4994 033d
00000200: 721a f2bb e187 413e 20b2 86bd d7cd fbbd
00000210: 3543 2dbd 37ad 2a3e 9f1c cebc e0f2 273e
00000220: 3855 e0bd b982 f7bc 5370 84bb 3d29 5a3c
00000230: bfd4 f9bd e22b 443d 774b 6c3c 87e7 8f3c
00000240: 488a a13d bbb2 853d 39d9 dd3c 5ff5 1fbe
00000250: c54e 22be f893 c13d f813 5dbd b4d9 9e3d
00000260: a61a 1f3e 1c32 cbbd 6ec4 343d 943c 72bd
00000270: 17de 303c 6043 8b3d 84d9 0f3d 0eb3 013e
00000280: a7fc d53c c9dd 9fbc df1a 643d 724e a03c
00000290: 257a d5bd da15 4ebe 729c 8c3d e066 723c
000002a0: 8267 e1bd fdfb edbd 5c65 3a3e 8673 f93c
000002b0: 8a5b f93c d33d 0abe dd31 8c3d ce36 9cbc
000002c0: ed12 06bd bbd6 c13d 0aec 133e 3442 973d
000002d0: 59fa aebc 750c 923d a9fe 94bd 2a02 e6bd
000002e0: c966 623c 6f57 b63d 7dd8 633d a64e 7cbd
000002f0: 62ba 18be f580 21be 166c 00be 1a14 073d
00000300: 018c 6fbd 6d6d babd babe 3fbd 7f3b 1d3e
00000310: 0c16 7f3d 7239 2b3d a6e8 acbd 1328 72bd
00000320: 32ff 38be 4869 80bd e78f 0fbe 4e1a ad3d
00000330: c79f 773d 1be9 8c3d 230b a5bc 0f9a eebd
00000340: 76ac 15be 04bf a7bd dcf4 0dbd 2cdc c0bd
00000350: a4f2 27be b736 dc3d dbdc 9cbd dbc4 91bd
00000360: c450 f7bd 2767 44be 0c5a 18ba 521d 2dbd
00000370: d824 80bc 859b 7abd 917d 563d aaca 6dbd
00000380: c8b5 33be c5d0 503d adcd 6d3d 0b9e 5e3d
00000390: bf2a 233d cea0 403c cdb4 14be e97b a23d
000003a0: babe b5bd b822 f3bb 656c 7cbd f08d 60be
000003b0: 7543 b6bd aa48 5abd 2333 853d 1a63 163e
000003c0: bc68 17be 2365 b5bd 21c3 12be a3dc b6bd
000003d0: 7f5d 233d 0bba 1bbe 748a b13d d33e af3d
000003e0: f4d2 a63c f948 61bd 11f0 d1bd f942 a3bd
000003f0: 62f5 f23d cb84 ea3d 4279 cabd 29be 5a3d
-0.13201526 0.101268016 0.12521906 -0.086650796 0.12161649 0.025650326 0.094787754 0.020024376
-0.15656984 0.14053953 -0.1400133 -0.06812431 -0.0035388835 -0.070168234 -0.14094114 -0.12525432
0.0037683165 -0.10453559 -0.093597166 -0.0015144744 0.17937067 -0.13347596 -0.054237053 -0.021304714
-0.09808356 -0.070933886 -0.06097006 0.076473154 0.08045908 0.06563788 0.1212217 0.035731375
-0.12004012 -0.021478735 0.089643516 -0.09023305 0.08619927 -0.056571808 -0.03411412 0.008934
-0.15816636 -0.114056036 0.021329613 -0.09252575 -0.06697794 -0.0065871975 -0.022185264 -0.18222207
0.012142522 -0.045610175 0.049512412 0.087167956 -0.08412909 -0.093048066 0.08979058 0.12197846
0.09921323 0.08113445 0.07103362 -0.08436098 -0.1367383 -0.09744006 -0.056256823 0.09335545
-0.074641734 -0.12317069 0.046410523 -0.05414265 0.08593872 0.06088301 0.13822606 -0.06224832
0.06408265 0.11774122 0.04663922 0.040056344 -0.14015548 -0.09786676 -0.12612925 -0.0046151527
-0.017678604 -0.078150265 0.04663606 0.016808651 -0.14271589 -0.04465512 0.087858886 -0.09247256
0.17787035 0.10951811 -0.12287621 -0.03508057 -0.08571341 -0.16014025 0.07700487 -0.0114200665
0.06474512 -0.108927 -0.12767154 -0.13796103 -0.09544967 0.18606974 -0.050831888 0.0093153315
-0.06623671 0.03449468 -0.06908238 -0.021302179 0.1085628 0.030722503 0.056651093 -0.02205223
0.10601492 0.07770304 0.093562305 -0.16794872 0.0754507 0.068859525 -0.06692238 0.06630782
0.17257303 0.0506382 0.0033014726 0.12556304 0.03518667 -0.0033255122 0.060652267 0.032123838
-0.0073884064 0.1889949 -0.065769434 -0.1229512 -0.04230042 0.16667639 -0.025160132 0.16401243
-0.10953754 -0.0302137 -0.0040417104 0.013315496 -0.12198781 0.047893412 0.014422289 0.017566456
0.07887703 0.06528231 0.027081119 -0.15620945 -0.1585036 0.09452051 -0.05397412 0.07756367
0.1553751 -0.09921667 0.044132642 -0.059139803 0.010795138 0.0679996 0.03511955 0.1266596
0.02612145 -0.019514935 0.05568969 0.019568656 -0.10423688 -0.20125523 0.06865777 0.014795035
-0.11006071 -0.116203286 0.18202728 0.030450594 0.030439157 -0.13500147 0.06845448 -0.019069102
-0.032732893 0.09464785 0.1444551 0.07385674 -0.02135961 0.07131282 -0.07275135 -0.112308815
0.013818451 0.089033954 0.05562638 -0.061598442 -0.1491485 -0.1577185 -0.12541232 0.032978155
-0.058483128 -0.091029026 -0.04681275 0.15354727 0.062276885 0.04180283 -0.08442812 -0.05912025
-0.180661 -0.06270081 -0.14019738 0.08452283 0.06045511 0.06880399 -0.020146912 -0.11650478
-0.1461657 -0.0819073 -0.034657344 -0.094169945 -0.16401154 0.107526235 -0.07659312 -0.07117625
-0.12075952 -0.19179974 -0.0005811758 -0.04226429 -0.015642568 -0.06118347 0.052365843 -0.058054604
-0.17549813 0.05098035 0.058057476 0.05434994 0.039835688 0.011757089 -0.14522095 0.0793379
-0.08874269 -0.0074199103 -0.06162681 -0.21929145 -0.08899585 -0.053291954 0.06503894 0.14686242
-0.14786047 -0.08857181 -0.14332248 -0.08928802 0.039884087 -0.15207689 0.08668986 0.08556905
0.020364262 -0.055001233 -0.10250867 -0.079717584 0.11863209 0.114511095 -0.09886409 0.053404007

encoder.lstm.weight_hh_l0_reverse f4 [200, 50]
00000000: a4a9 683a 6242 dcbd d01a 92bc 314c 2dbd
00000010: 46ea 1e3c a81c 133d 6cb3 afbd 7b8c c23c
00000020: ddf2 edbc 4a82 883d 656d 27bd 5e3a 2ebd
00000030: e3be f73c 4a99 c13d aeb8 6a3d 1932 61bd
00000040: 18af 4c3d 2ad0 94bd aa2a 4a3c d68f c6bd
00000050: 8c4e d6bd 7be6 af3c 8d81 80bd bcbc 56bc
00000060: 058f 063d 22bf 5a3d 9944 633c 9af0 ebbd
00000070: 54fd 9ebd 60af 18ba fd1c 5e3d a5cd 03bd
00000080: 1302 d4bd a38b 63bd 3814 503c 902a efbd
00000090: 5be9 2abe 79d3 67bd 4745 b8bd bfd0 fa3b
000000a0: 9b27 c43d 8c83 763d a841 07be 8e7c 323e
000000b0: 75a1 01be 651b 0bbe 1218 85bd 4995 89bd
000000c0: fd80 e9bd a8f1 0abc c34b 47bd 6ea1 1c3e
000000d0: 298e 003e 802c f1bd a5fa a13d e712 6abd
000000e0: 10c1 0c3e 34ae d5bd d8e0 47bd ce89 d13d
000000f0: a2ce e3bd aa32 083e d19c 373e c65b e5bc
00000100: 86c6 933d 31c5 f6bd 0cb8 923d fdf8 0fbe
00000110: 2b5a 953d c5a6 0a3d 7b96 fa3d 9d63 ddbb
00000120: 038c a3bd 2fd8 8bbc 594f 7bbd 8c08 003e
00000130: 2945 0f3e 1489 18bd 0f13 c1bd 1d30 08be
00000140: 1e53 3fbc 9c88 8f3d 5ad1 873d a3ed c43c
00000150: 48dd 8dbd 7bbc e53d 27ac d03c 0257 46bd
00000160: 471d 95bd 31cb b7bd 1027 283e bb11 eb3d
00000170: 6911 bcbd c2ba 79bd c61d 2b3d 9107 013d
00000180: fcff 273e 51a3 e93d 725b 87bd 42fb c03d
00000190: aed5 2d3e 9b5f 403d 43d2 18bd f440 2c3c
000001a0: 0166 b93d 8937 8fbd 0ac1 ac3d 95c1 8cbd
000001b0: 8f24 06be 8e59 af3c 3d38 203e f187 833d
000001c0: 4a7d 2c3e 107c b43d 937c 7cbd 9c16 d4bc
000001d0: a1b3 fbbd e24c fd3c 6449 78bd cb3a 6b3c
000001e0: d336 683c bb0b ec3d 0345 043e fb83 be3d
000001f0: 0b2b cbba eacb 0dbd be0a 3fbd 8a52 20be
00000200: 5a8d ac3d 5915 ec3b cbf8 2c3d 419e bc3d
00000210: 2c77 99bd 9b3a 83bc bc6f 913d 8529 633d
00000220: 1167 28be 48a0 e5bd efc4 283e d6ab edbd
00000230: c592 86bd 6345 5f3d 48aa ba3c a2bd e5bb
00000240: 8e50 67bd ce61 483d ba29 053e 0eab 183e
00000250: b304 b3bd 1dec 62bd 3b70 223c 6b49 c43c
00000260: e971 2b3d f8cd 06be 63c2 edbd e86c cbbd
00000270: c552 1e3d 5fd5 893c 83c2 ecbd 830f f8bd
00000280: 10ed a93d 64e9 bfbd 78a1 d03d 9089 133c
00000290: 53ff 30bd 15fb 0d3c 1358 c6bc 45a9 03bc
000002a0: 0374 193e 204e 18bd 20cd 1f3e be55 5a3d
000002b0: 23ec 2e3d dac0 bebd b90a eebd f083 923c
000002c0: 0afb 8bbd 155c 273e a8f1 70bd 2b5b a23d
000002d0: 8e81 013e 2baa b3bc 8784 b2bd da36 ffbd
000002e0: bee8 7e3d 80fe 2b3d 0b0a 16bc a5e4 87bd
000002f0: 7a19 02be 97f5 dd3d a672 953d 84a3 893c
00000300: a719 3fbd 7093 653d d5f9 8fbd 8cd9 ddbd
00000310: 5abe 273e 5152 02be b465 f53d 706a 1dbe
00000320: d349 083e bbfd f0bd 6c36 593d 8629 d3bd
00000330: b0e0 263e 7523 723b bfc9 44bc 6d91 09bb
00000340: bb72 233e a5dc bcbc 2cdb 7cbd fc1f 58bd
00000350: ee7c 323c e3bb bbbd 9230 dabd 417f 273e
00000360: d9a0 c43d 14b7 d7bc 205a 8c3d d1e3 b4bd
00000370: 7a4c 1d3d 2b4e fd3d 1e76 003e 2c14 463d
00000380: 8305 adbd 7980 d6bc d28c 2d3c bb7e 67bd
00000390: 6da8 e73d 2d82 16be 0d69 d43d a9bd ecbd
000003a0: 904d 253e 3ad6 f93c 4cde e4bd 0a45 b3bd
000003b0: baad bd3d a582 c3bc 5ae4 01bd ef87 0dbe
000003c0: a14b 10bd 4f93 d3ba 2b3b edbd 0357 45bd
000003d0: 8430 4d3d 4c8a 6dbb 8609 7a3c 483f 6fbd
000003e0: 2869 c2bd 4227 ffbc ff59 92bd c8b1 2e3b
000003f0: 3469 6ebd 1081 a43d 01e6 84bd 156c 5b3d
0.0008875376 -0.10754849 -0.01783505 -0.04230899 0.00969941 0.035916 -0.08579144 0.023748627
-0.02904647 0.06665476 -0.04087581 -0.042536132 0.030242389 0.09453066 0.05730503 -0.054979417
0.04997167 -0.07266267 0.0123392735 -0.09695403 -0.104642004 0.021472206 -0.0627471 -0.013106521
0.032851238 0.053404935 0.013871335 -0.115205005 -0.07763162 -0.0005824473 0.054226864 -0.03217854
-0.10351958 -0.05555309 0.012700133 -0.1167804 -0.1669058 -0.05659816 -0.089975886 0.007654279
0.09577867 0.060184047 -0.1320864 0.17430326 -0.12659247 -0.13584669 -0.06498732 -0.06717927
-0.11401556 -0.008480467 -0.048656236 0.15295956 0.1255423 -0.11776066 0.07909135 -0.057146933
0.13745522 -0.10433617 -0.048798412 0.10231362 -0.111233965 0.13300577 0.17930914 -0.027997863
0.072156 -0.1204933 0.071640104 -0.14059825 0.07292589 0.03385045 0.12235733 -0.0067562596
-0.079856895 -0.017070858 -0.06135497 0.1250326 0.13991226 -0.037240103 -0.09427463 -0.13299604
-0.0116775315 0.07008478 0.066317275 0.024039095 -0.06926972 0.112175904 0.025472714 -0.04842282
-0.07280975 -0.089743026 0.16421151 0.11477991 -0.09183008 -0.06096912 0.04177644 0.031501357
0.16406244 0.11408103 -0.06609239 0.094229236 0.16976044 0.046966176 -0.037309896 0.010513533
0.09052659 -0.06993014 0.08435257 -0.0687286 -0.13099883 0.021405008 0.15646453 0.06422413
0.16844669 0.088127255 -0.06164224 -0.025889687 -0.12290121 0.03092045 -0.060616866 0.014357279
0.014173227 0.11525675 0.12916951 0.09302517 -0.0015500499 -0.034618296 -0.046641104 -0.15656486
0.08425398 0.0072046933 0.042229455 0.09209872 -0.07493433 -0.016019156 0.0710139 0.055459518
-0.16445567 -0.11212212 0.16481374 -0.11605041 -0.06570963 0.05450953 0.022786275 -0.0070111314
-0.056473307 0.0489214 0.13004199 0.14909002 -0.08741131 -0.055400956 0.009914453 0.02396079
0.04185668 -0.13164508 -0.11609342 -0.099328816 0.038653154 0.016825376 -0.11560538 -0.121123336
0.08297169 -0.093706876 0.10187048 0.009004965 -0.043212246 0.00866582 -0.024211919 -0.0080359625
0.14985661 -0.03718388 0.15605593 0.053304426 0.042705666 -0.09314127 -0.11623139 0.017885178
-0.06834991 0.1634372 -0.05882421 0.07927545 0.12647077 -0.021931728 -0.08716684 -0.12461634
0.06223368 0.041990757 -0.009157668 -0.06635407 -0.12705031 0.10837858 0.07297258 0.016801603
-0.046655323 0.05604881 -0.070300736 -0.108325094 0.16381207 -0.12726714 0.11982289 -0.15372634
0.13309412 -0.11767145 0.053030416 -0.10310654 0.16296649 0.0036947404 -0.012010991 -0.0020991222
0.15961735 -0.02305443 -0.061732456 -0.052764878 0.010894043 -0.09166696 -0.10653795 0.16357137
0.09600992 -0.026332416 0.068531275 -0.08832515 0.03840301 0.12368425 0.12545058 0.04835908
-0.08448317 -0.026184307 0.010592656 -0.056517344 0.113114215 -0.14698096 0.10371599 -0.11559612
0.16142869 0.030497659 -0.11175212 -0.087534025 0.09261651 -0.023866007 -0.031711914 -0.13821386
-0.035228375 -0.0016141924 -0.11583551 -0.048178684 0.050095096 -0.0036245761 0.01526106 -0.05840996
-0.09492713 -0.03114665 -0.07146072 0.002665626 -0.0582058 0.08032429 -0.06489182 0.053569872

encoder.lstm.bias_ih_l0_reverse f4 [200]
00000000: d823 6ebb f87c ec3d e852 fe3d 8a1e a9bd
00000010: 2918 ff3d 2443 253d 4124 42bd 39ce 4d3d
00000020: 944d 893d 40cd 473e cbd6 a23d 6398 8abc
00000030: 7335 a73d 89f1 d2bd 6298 123d 246e c9bd
00000040: 95b0 333e b932 043e 99ac d23d 11b8 1e3d
00000050: 5a9c a83d ace6 b13d d833 4cbd 3ba1 c33d
00000060: 373f 17bd e492 83bd f06f ab3d f0c4 d43d
00000070: 7858 603d dd40 4cbd 3d30 22bd 5c12 ccbd
00000080: edaf 0d3e 8d2b 8ebd c66d d6bd ef45 4a3e
00000090: 0d40 dd3d 6634 713c 8ff2 f83c 560f 4d3d
000000a0: e480 29bc 9a54 583c 587b 763d fdfb 41bd
000000b0: ae44 59bd 768f 923c adc7 b13d 78d7 cabd
000000c0: 084b 363e 0a86 713d cdbb 423d 5398 203c
000000d0: e1a5 203d 0b7a a1bd dda1 b5bc 9ef7 be3c
000000e0: c2ae 7c3c 2c92 ae3d a67e 6d3e 51c9 39bd
000000f0: e294 b5bd 219c ae3d 5aac bdbd d4a6 2f3b
00000100: 8dfb 2a3e 7d2a 3d3e 2087 17bd e772 8fbd
00000110: 18a0 313e cae4 3c3e 8cd4 cdbd f246 703d
00000120: 1742 f83d 4060 80bd 8188 923c 4827 1bbd
00000130: 724b 013e 00d6 2b3d 32a0 74bd 3747 53bd
00000140: 685d 9a3d b42d 89bd 501e 29bd 3b31 ef3d
00000150: 864d d43d fded dd3d 5975 1c3c ffda 2e3e
00000160: 7b4f 073e c6d0 0abd bf27 c83d 125c 3e3e
00000170: 0721 793d e3c5 293e b924 343e b87d c33d
00000180: a27f a83c 1987 8d3d e2eb 173d 2664 ab3d
00000190: 5eb8 a43d 4f79 7cbd 57f6 8eba 89a0 c33d
000001a0: 6e68 063d 36c6 933d a468 f03c e37b 81bd
000001b0: 77e1 bdbc f40a 1a3d 152b 6ebd 61b8 b3bc
000001c0: 945d 8f3d 42c1 663d c77a c0bc 5db4 d43d
000001d0: ae54 a73c ef43 1fbe 3848 fbbd c333 1a3e
000001e0: 846e 8e3d 4310 123e 4d5d 163e 3e78 803d
000001f0: a95d bfbc 4912 b63b 4e80 543d 3047 50bd
00000200: 4092 05be 7968 a63d 14f7 1dbe ae31 04be
00000210: 9616 8ebd 95d1 083e 30e9 afbc 872c 093d
00000220: ecc8 0bbe d34c 8cbd a158 d43d 7fdc 8abd
00000230: ec02 5d3d ab1f 3b3d 8cf5 8abd 808f ef3d
00000240: df0b b73d 72e9 253d fc28 3e3d 2059 04bd
00000250: 0c5f 12be 856c 143e 63b3 c13b 12b2 dabd
00000260: 8174 9cbc 66cc cabd d67d 963d cfa8 58bd
00000270: d66f 193d 3a1a bd3c f48a 063e 33e0 153d
00000280: d8a3 b93d dc36 da3d 84ba fcbd a644 ec3d
00000290: e03e a6bd 4c0c 673d a302 d63d ec94 223d
000002a0: 0171 49bc db35 303d c778 d4bd fec5 01be
000002b0: 457e c83d 54d3 5f3c fb5d 223e a365 063e
000002c0: 0a4e 0a3d c63c 9bbd 42d5 0b3e 6efd 38bd
000002d0: 74ce afbc cfd6 333d 39c5 5a3d 70e9 343e
000002e0: 3529 c33d cdb4 233d f8b1 073e b47a 423e
000002f0: be6b 4fba b28d e93d 86f4 cc3c 4d07 433d
00000300: 9af6 073d a634 dd3d 9779 053e 2e0d 013e
00000310: 5952 0c3e ec8c 273e c7cf 9dbd 9b4b 4e3d
-0.0036337283 0.115472734 0.12418157 -0.08257778 0.1245578 0.040347233 -0.047397856 0.050245497
0.0670425 0.1951189 0.07951125 -0.016918367 0.081644915 -0.102999754 0.035789855 -0.09835461
0.1754783 0.12909974 0.10286827 0.03874976 0.08232947 0.08686575 -0.04985413 0.09552237
-0.03692552 -0.064245015 0.0837096 0.10389125 0.05477187 -0.049866546 -0.039596785 -0.09964439
0.13836642 -0.069419004 -0.10470156 0.1975324 0.10803232 0.014721965 0.030389098 0.050063454
-0.010345671 0.013203764 0.060176224 -0.047359455 -0.053044014 0.017890673 0.08680663 -0.09904379
0.1780206 0.05896572 0.047542382 0.009801942 0.039220694 -0.07884606 -0.022171909 0.023311432
0.015422525 0.08523974 0.23192844 -0.045358006 -0.08866288 0.08525873 -0.09261389 0.0026802318
0.16697522 0.18473239 -0.0369941 -0.07004338 0.17346227 0.18446651 -0.10050306 0.05866141
0.12121981 -0.06268358 0.017887356 -0.03787926 0.12626436 0.041952133 -0.059723087 -0.051581588
0.07537347 -0.0669817 -0.041288674 0.11679312 0.10366349 0.10836408 0.009549462 0.17075728
0.13213913 -0.033890508 0.09773206 0.1858981 0.060822513 0.16579394 0.17592134 0.09545463
0.020568673 0.069105335 0.03709019 0.08368711 0.08042978 -0.061639126 -0.0010907155 0.09552104
0.032814436 0.0721554 0.029346772 -0.06322458 -0.0231788 0.037608102 -0.058146555 -0.021938505
0.070002705 0.05633665 -0.023496045 0.10385964 0.02042612 -0.15553258 -0.12269634 0.15058808
0.06954673 0.14264016 0.14684029 0.062729344 -0.02336009 0.005556379 0.051880173 -0.05084914
-0.13044071 0.08125395 -0.15426284 -0.12909576 -0.06937902 0.13361199 -0.021473497 0.03348973
-0.13650864 -0.068505906 0.10368467 -0.067803375 0.053957865 0.045684498 -0.067851156 0.11697292
0.08937811 0.040505834 0.046425804 -0.03231156 -0.1429407 0.14494522 0.005911277 -0.106784955
-0.019098522 -0.09902267 0.0734822 -0.052895363 0.03746017 0.023083795 0.13138944 0.036590766
0.09064454 0.10654995 -0.123402625 0.11536531 -0.08117461 0.05640821 0.10449722 0.039692804
-0.012295009 0.04302011 -0.10374599 -0.12673184 0.09789709 0.013661224 0.15856163 0.13124709
0.03376583 -0.07579951 0.1365557 -0.045163564 -0.02146075 0.04390603 0.053410742 0.17667174
0.09529344 0.039967347 0.13251483 0.1899212 -0.0007912478 0.11403979 0.025018942 0.047614384
0.033194162 0.108010575 0.13034664 0.12602684 0.13703288 0.16362351 -0.07705646 0.05036507

encoder.lstm.bias_hh_l0_reverse f4 [200]
00000000: c620 e13d bca2 bebd a270 2d3e 5faa 7b3d
00000010: a263 bcbd d45b d1bd fef2 3c3e efad d33d
00000020: 7d1d 2a3e 4cdd 333e 9bad 69bd f106 6b3d
00000030: 4808 17bd b0ab 043e af2d 80bd 5a67 283e
00000040: f19c 683d cb25 c23d b2d9 393e 8578 2d3e
00000050: 55ab 193a 7162 c4bd 621b 6f3d a8bf 2d3e
00000060: 3a46 7b3d 32e7 013d 12ed 803d 47b6 663d
00000070: 467a 9a3c 6d7e af3d 74d3 e83c 6ebc 713d
00000080: 8548 5a3e ed99 3dbc 8698 7e3c 7b55 153d
00000090: 73d2 b13d 987d f33b 2986 343e 02ce 7abc
000000a0: 639b 163e 98fe 37bd 230e 3e3c f5ae a93c
000000b0: f915 a33d 5d7a 0c3d 8a9c cb3c 8508 ca3d
000000c0: 4623 e33c 4736 92bd 626d 063e eeda 733d
000000d0: 6b69 153e 8457 41bc d6e2 c83d 400d 463d
000000e0: 8c02 883d 64d6 db3c 1248 7b3e 8549 46bd
000000f0: e49d 01bd fb28 b13d f0a6 c93d 2bcb 55bd
00000100: 669f 223e 3127 443e 3593 283c f14c 74bd
00000110: 9ebd 403e 5bd8 ed3d a2f8 143e 5bf4 f53d
00000120: fdea 7d3c 4887 d93d 7243 363e 0403 7dbc
00000130: 03c5 cb3d e089 2c3d 39d8 893d fbbb 53bd
00000140: 3060 633d d753 84bc 9fa0 c63d 162d 5cbb
00000150: d759 8b3d 1302 083c 34bf f13d a3f1 273d
00000160: 7b09 c43d 5280 6a3d e250 aa3c dcbe 3abd
00000170: e65a a23d d821 203e c46b aa3d 849d 73bd
00000180: 15ea 5fbc 2db6 133c f1cb 143e 7b75 293e
00000190: 2597 0f3e 4e0e 2d3e 2f2e 04be 4761 a53d
000001a0: 5dac 09be c2d5 a43c 5d81 11be 105d 32bd
000001b0: a783 adbd 1c80 893d 6cf0 093e 6d8d c13d
000001c0: 6475 053e 07bc 063e 3a9c d7bb a372 193d
000001d0: 6cda bb3c 844c d2bd 30cd a93d cb90 113e
000001e0: 01ee 35be 1855 e0bc f6b8 f13b 17bf 26be
000001f0: 6fd7 cfbd 320d ecbd 2dc7 953d de00 8fbc
00000200: d51b a0bc 9c6d 25be 15fb 78bd bf2e d6bd
00000210: 25fc 823d 8e99 0a3e e3c8 f93d 86a3 f3bb
00000220: a161 aabc ae6d fb3c 8b22 1fbd e7b7 32be
00000230: 199a dc3d 0566 06be 164e edbd abb1 0dbc
00000240: 2e4d 00be f48d a33d bf5b 123e 0463 173e
00000250: e558 abbc ee9a 9fbc 6d15 b63d aa7c 013d
00000260: 8839 eb3d 9cad e63d 66a5 2a3e 2b77 203d
00000270: e55b dfbc 7dcb 683d 6f4c 3f3e d4f7 3d3e
00000280: 589a 873d 5173 35bd 903f 97bd 6eac ccbd
00000290: 5b2c 613d 86b5 293d a832 aa3d 4c45 973d
000002a0: 4839 f13d da59 313e 6fd7 ec3d a015 5fbd
000002b0: 17ee 113e df89 a73d 53b7 343e fd03 1d3e
000002c0: e950 063e f568 d4bd de9c 833d affe 383e
000002d0: 2c1c 0b3e 575a 083e bb67 413d 9548 083e
000002e0: f7fe d13c 46a1 b23d c0b4 533d 6e95 293d
000002f0: 9a06 2dbd b419 cb3d 2644 a7bd be87 e7bc
00000300: cb6d bfbd 18fc a93c c9e3 d83d b38b 75bc
00000310: 31d1 e0bd 27eb fc3d 741b 083e 65e0 07bc
0.10992579 -0.09308383 0.16937497 0.061441775 -0.09198691 -0.10222593 0.18452069 0.103359096
0.16612811 0.17564887 -0.05705033 0.057379667 -0.036873132 0.12956119 -0.062587135 0.16445675
0.056790296 0.09479865 0.1814945 0.16940506 0.0005862017 -0.09589089 0.058375724 0.16967642
0.06134627 0.031714626 0.062952176 0.056326177 0.018857133 0.08569036 0.028421141 0.05901759
0.21316727 -0.011572343 0.015539294 0.036458474 0.08682718 0.0074307434 0.17629303 -0.015307905
0.14707713 -0.044920534 0.01160005 0.020713309 0.07963175 0.034296382 0.024854917 0.09864906
0.02772678 -0.07139259 0.13127664 0.05953496 0.14590995 -0.0118006505 0.098088905 0.04835248
0.06641111 0.026835628 0.24539211 -0.048409957 -0.031644717 0.086503945 0.09846294 -0.05219571
0.15881118 0.19155575 0.010289003 -0.05964369 0.18822333 0.11613532 0.14547971 0.12009498
0.01549792 0.10621506 0.17799166 -0.0154426135 0.099496864 0.042123675 0.06730694 -0.051692944
0.055511653 -0.01615326 0.09698605 -0.003359621 0.06804245 0.008301276 0.11804047 0.041001927
0.09572121 0.057251282 0.020790521 -0.045592174 0.07927494 0.1563791 0.08321336 -0.05947639
-0.013666649 0.009015602 0.14530922 0.16548721 0.14022501 0.16899988 -0.12908243 0.08075195
-0.13444658 0.020121459 -0.14209504 -0.043545783 -0.08472376 0.06713888 0.1347062 0.09450803
0.13033062 0.13157664 -0.006579903 0.03746284 0.0229313 -0.102685004 0.082910895 0.1421539
-0.17766573 -0.027384326 0.0073767854 -0.16283832 -0.101485126 -0.11525954 0.073133804 -0.017456468
-0.019544521 -0.16155094 -0.060786325 -0.10458135 0.06395749 0.13535139 0.12196519 -0.007435265
-0.020798506 0.030691948 -0.038851302 -0.17452966 0.10771579 -0.13124855 -0.11587159 -0.008648316
-0.12529442 0.0798606 0.14292811 0.14783865 -0.020916412 -0.019483056 0.088908054 0.03161303
0.114855826 0.11263582 0.16664657 0.039176147 -0.027265498 0.056834687 0.18681501 0.1855157
0.066212356 -0.044299427 -0.073851705 -0.09993826 0.05497394 0.04143288 0.08310443 0.07386264
0.11778504 0.17319432 0.11564528 -0.054463983 0.1425098 0.08180594 0.17648058 0.15333553
0.13116802 -0.103715815 0.064264044 0.18065904 0.13584965 0.13315712 0.047218066 0.13308938
0.025634272 0.08722167 0.05168605 0.041402273 -0.042242624 0.09917012 -0.08167295 -0.02826297
-0.09347113 0.02075009 0.105903216 -0.01498692 -0.109774 0.12349539 0.13291723 -0.008293246
